app/models/autoencoder.pth (torch, 146055 bytes, 12 tensors)

encoder.0.weight f4 [128, 64]
0	0xbc8f1781	-0.017467262
1	0xbc0672ec	-0.00820611
2	0xbd35d1ca	-0.044389524
3	0x3b9b8c5c	0.0047469568
4	0x3e08f20c	0.13373584
5	0x3e24f9c3	0.16110902
6	0x3ccfd120	0.025368273
7	0x3dd0e796	0.102004215
8	0x3d4e0e59	0.05030665
9	0x3d81c672	0.063366786
10	0xbc7add8e	-0.015311612
11	0xbd946c66	-0.07247238
12	0x3d6f1e99	0.05837879
13	0x3d11884a	0.035530366
14	0x3da242ee	0.07922922
15	0x3d997ead	0.074948646
16	0xbdd02d04	-0.10164836
17	0x3d58bf49	0.0529168
18	0x3d39a693	0.045324873
19	0x3d8ff700	0.070295334
20	0xbdc13fdc	-0.09436008
21	0x3d0e2421	0.034702424
22	0xbdce56a0	-0.10075116
23	0x3db17460	0.08664775
24	0xbd9629a5	-0.07332162
25	0x3cedd515	0.02903227
26	0x3d87186f	0.06596457
27	0xbd28b6b2	-0.041189857
28	0x3daf33a3	0.08554771
29	0x3cf7024e	0.030152466
30	0xbd140c27	-0.036144402
31	0xbaf4cd31	-0.0018676874
32	0x3c9ce78a	0.019153375
33	0xbd84ef63	-0.06490972
34	0x3db5f872	0.08885278
35	0xbdc4ebd4	-0.09615293
36	0x3dbc53e8	0.09195691
37	0x3d58908b	0.052872222
38	0x3aa44529	0.0012532818
39	0xbd9f6f8c	-0.07784948
40	0xbbc07119	-0.0058728573
41	0x3de224f1	0.11042202
42	0xbd88f544	-0.06687406
43	0xbde2b4a5	-0.110696115
44	0x3dbfc5e5	0.09363917
45	0xbded1d38	-0.11577839
46	0xbd919064	-0.071076185
47	0xbd8f6472	-0.0700158
48	0xbc9e07e2	-0.019290868
49	0x3d9342aa	0.071904495
50	0xbd9265a9	-0.071482964
51	0x3deb96c4	0.11503366
52	0xbcbcaefa	-0.023032654
53	0xbcc63143	-0.024193412
54	0x3e06a641	0.13149358
55	0x3cea89a5	0.028630087
56	0x3d278ba0	0.04090464
57	0xbce55af1	-0.027997466
58	0xbd9426c8	-0.072339594
59	0xbdaff3b1	-0.08591402
60	0xbdbfbb1a	-0.09361859
61	0x3ca7ec27	0.020498348
62	0xbc8093c9	-0.01569547
63	0x3c94ba96	0.018155377
64	0xbdfbdd0c	-0.12298021
65	0x3de927ba	0.1138453
66	0xbde2ef94	-0.11080852
67	0x3db0f6fa	0.08640857
68	0x3de22bac	0.11043486
69	0x3b8352a0	0.0040076524
70	0xbd5378ac	-0.051628754
71	0x3c75b5f0	0.014996991
72	0xbdc4644e	-0.09589444
73	0xbd9c21de	-0.07623647
74	0x3d9f9a34	0.07793084
75	0x3db2ce8e	0.087308034
76	0xbdb77d8e	-0.089594945
77	0xbdbe3d0a	-0.09288986
78	0xbdf67464	-0.120339185
79	0xbd4192ac	-0.047259018
80	0xbd246350	-0.040133774
81	0x3db6ec2a	0.089317635
82	0x3db3c380	0.08777523
83	0xbdccd0a6	-0.10000734
84	0x3d9e06fa	0.077161744
85	0xbdd3a04a	-0.10333307
86	0x3d0d8fc4	0.034560934
87	0xbdeb5938	-0.114916265
88	0xbc698130	-0.014251992
89	0xbd291790	-0.041282237
90	0xbd791734	-0.060813144
91	0x3dae36d6	0.08506553
92	0xbc407600	-0.011746883
93	0x3da39862	0.07988049
94	0x3d1eff40	0.038817644
95	0xbb363a00	-0.0027805567
96	0x3c832700	0.016009808
97	0x3daaa3ea	0.083320454
98	0xbda9af12	-0.08285345
99	0xbd081954	-0.03322728
100	0x3ce81fa0	0.028335392
101	0xbdb0c3ca	-0.08631094
102	0xbcfaacf0	-0.030600041
103	0x3d93e7ae	0.07221924
104	0xbda656f2	-0.08122052
105	0x3dfdd4ea	0.12394126
106	0xbd6350dc	-0.055497035
107	0x3d765a74	0.060144857
108	0x3db8d178	0.09024328
109	0x3d901bea	0.07036574
110	0x3cd10d18	0.025518939
111	0x3cc3d858	0.023906872
112	0x3c8c2630	0.017108053
113	0x3dd3fc7e	0.103508934
114	0x3de7949e	0.11307643
115	0x3d9241b8	0.07141441
116	0xbd0bffa4	-0.034179345
117	0x3cfa4d40	0.030554414
118	0xbae12400	-0.0017176867
119	0xbbb5d6a0	-0.005549267
120	0x3cd25438	0.025674924
121	0x3c588c00	0.013216972
122	0xbdb0735c	-0.08615753
123	0xbccc4e70	-0.024939746
124	0xbd3efbac	-0.04662673
125	0xbd015280	-0.03157282
126	0x3be50f60	0.0069903582
127	0x3acb6580	0.001551792
128	0x3e01723e	0.12641236
129	0x3deea656	0.1165282
130	0xbddf81b0	-0.10913408
131	0x3b231290	0.002488289
132	0xbd40021c	-0.04687701
133	0x3e272c63	0.16325526
134	0x3e11101d	0.14166303
135	0xbc8458db	-0.01615565
136	0x3d8b267d	0.067944504
137	0x3d44e376	0.048068486
138	0x3caeb7ed	0.021327937
139	0xbd83033a	-0.063971
140	0xbcdf604d	-0.0272676
141	0xbd4e5b1f	-0.05037987
142	0xbdff5fd9	-0.12469453
143	0x3da84aaa	0.08217366
144	0xbd5dccf9	-0.054150555
145	0x3dd4a09b	0.103821956
146	0xbd7fa4bb	-0.06241296
147	0xbde9afd3	-0.11410489
148	0xbdb649f1	-0.08900822
149	0xbd1595e8	-0.036519915
150	0x3d43025e	0.04760968
151	0x3d8e7c19	0.069572635
152	0xbd138166	-0.036012076
153	0xbd23035b	-0.039798122
154	0xbdeef23a	-0.11667295
155	0x3dea0c55	0.114281334
156	0x3d9bfe5d	0.07616875
157	0x3c6b28bd	0.0143529745
158	0x3d49a40d	0.049228717
159	0x3da37da3	0.07982948
160	0xbc98bdc8	-0.018645182
161	0x3c075cb1	0.008261845
162	0x3dbb87fe	0.09156798
163	0x3dc53017	0.09628313
164	0xbcb920bc	-0.022598617
165	0x3db1d924	0.086839944
166	0xbc07d13e	-0.008289633
167	0xbbbdb03e	-0.005788832
168	0xbd4967a1	-0.049171094
169	0xbd9d74e0	-0.07688308
170	0xbd31c957	-0.043404903
171	0x3d777a81	0.060419563
172	0xbde7d58b	-0.11320027
173	0x3dd80a31	0.10548819
174	0x3d1c6481	0.038181785
175	0xbd8b676a	-0.06806834
176	0xbd5dbc8f	-0.0541349
177	0xbdacffdf	-0.08447241
178	0xbd7a2273	-0.06106801
179	0xbd528056	-0.051391922
180	0x3de04e5f	0.10952448
181	0x3de087f7	0.10963433
182	0x3dcf4adf	0.101217024
183	0xbca63edd	-0.020293647
184	0xbd259d2f	-0.040433105
185	0x3cf336bb	0.029689183
186	0x3dcb91b6	0.099399015
187	0xbde72da4	-0.11288002
188	0x3dcbcd24	0.09951237
189	0x3bcc0600	0.006226301
190	0xbdc2701a	-0.09494038
191	0x3e06e70b	0.13174073
192	0x3c177969	0.009245255
193	0xbc25f757	-0.010129771
194	0xbe239a0b	-0.15976731
195	0x3d8b4906	0.068010375
196	0xbdda3e34	-0.106563956
197	0xbd203857	-0.03911623
198	0xbdac1939	-0.08403248
199	0x3d581054	0.052749947
200	0x3d4fbbcd	0.05071621
201	0xbccfeb14	-0.025380649
202	0x3d1b7fd5	0.037963707
203	0x3d6d1d67	0.05788937
204	0x3d76b669	0.060232554
205	0x3a8c7b56	0.0010717909
206	0xbe14ef7c	-0.14544481
207	0x3d2ff726	0.04296031
208	0x3d89ffa5	0.067382134
209	0x3d0a1173	0.033708047
210	0xbd7d6943	-0.061867964
211	0xbc382223	-0.011238608
212	0x3d897085	0.067109145
213	0xbb454b2d	-0.0030104623
214	0x3c33b0d7	0.010967455
215	0x3d7e987f	0.06215715
216	0xbbc54494	-0.006020138
217	0x3dcbc83c	0.09950301
218	0x3c6c6acf	0.014429762
219	0xbd14537b	-0.036212426
220	0x3da34231	0.079716094
221	0x3d3dacdc	0.04630743
222	0xbc3fa042	-0.011695923
223	0xbdd653ee	-0.10465227
224	0xbbf2d622	-0.0074107805
225	0xbd3eac0e	-0.046550803
226	0xbdc1f948	-0.09471375
227	0x3e0564b2	0.13026693
228	0x3d56e1f6	0.052461587
229	0x3df264ff	0.1183567
230	0xbdd6fbf0	-0.10497272
231	0xbd160a2a	-0.036630787
232	0xbd121438	-0.035663813
233	0xbc89b7e4	-0.016811319
234	0xbd23ca60	-0.03998792
235	0x3bfa737a	0.0076431604
236	0x3c3da8f6	0.011575928
237	0xbcb253b6	-0.021768432
238	0x3dd2e79c	0.10298082
239	0x3e08c13a	0.1335496
240	0x3d70d488	0.058796436
241	0xbd96f1a0	-0.07370305
242	0x3d980cce	0.07424317
243	0x3de7229c	0.11285898
244	0x3e04962f	0.12947915
245	0x3e096868	0.13418734
246	0x3d53247b	0.051548462
247	0x3df3d184	0.11905196
248	0x3e1a4349	0.1506473
249	0x3b6314fb	0.0034649957
250	0x3d311122	0.04322923
251	0xbd814dba	-0.06313653
252	0xbdc97a6c	-0.09837803
253	0xb9a520ac	-0.00031495595
254	0xbd18787c	-0.037224278
255	0xbcd28e40	-0.025702596

encoder.0.bias f4 [128]
0	0xbeb258e2	-0.34833437
1	0xbd84e664	-0.06489256
2	0xbe8edab2	-0.27901226
3	0xbda8ec41	-0.08248187
4	0xbddb2177	-0.10699742
5	0xbe8bf71a	-0.2733696
6	0x3d749325	0.05971064
7	0xbddf522f	-0.10904347
8	0xbd19a7b4	-0.03751345
9	0x3bcf6f40	0.0063304007
10	0xbcae87b8	-0.02130495
11	0xbdf7b0f0	-0.12094295
12	0xbbb99417	-0.0056634056
13	0x3db31f74	0.087462336
14	0xbe56b44e	-0.20967218
15	0xbe77b37b	-0.2418956
16	0xbe7af069	-0.24505772
17	0xbd5f4e76	-0.054518186
18	0xbd6874c0	-0.056751966
19	0x3dee2100	0.11627388
20	0xbe363c46	-0.1779643
21	0xbddcc23a	-0.10779233
22	0x3cee6c78	0.029104456
23	0x3dfba812	0.12287916
24	0xbdba3172	-0.09091462
25	0x3d9a8019	0.07543964
26	0xbe72d057	-0.23712288
27	0xbb0a8934	-0.0021138908
28	0xbe5d2479	-0.21595944
29	0x3cfce663	0.030871576
30	0xbdcf93df	-0.10135626
31	0x3e2fd2f8	0.17170322
32	0xbd1c3a2a	-0.038141407
33	0xbcfba448	-0.030717984
34	0x3c6780de	0.014129845
35	0xbcaf3e61	-0.02139205
36	0xbd758010	-0.059936583
37	0xbdf5974c	-0.11991748
38	0xbdaa1e52	-0.083065644
39	0x3d80543d	0.06266067
40	0x3dce0304	0.10059169
41	0xbb04fec0	-0.0020293444
42	0xbcff6540	-0.03117621
43	0x3d067642	0.032827623
44	0x3c5de401	0.01354313
45	0x3dbea5a0	0.09308934
46	0xbd312e48	-0.043257028
47	0xbdac97c6	-0.08427386
48	0xbcb01f1b	-0.021499207
49	0xbe5186ed	-0.20461626
50	0xbdc9ab42	-0.09847118
51	0xbd88fb2e	-0.06688534
52	0x3c9aacb0	0.018881172
53	0xbdbd9ec7	-0.092588
54	0xbde76ed0	-0.11300433
55	0xbddfc985	-0.10927109
56	0xbd24ec28	-0.04026428
57	0x3b94e5a4	0.004543977
58	0xbdbcd232	-0.09219779
59	0xbde4df65	-0.111754216
60	0xbccb6fe1	-0.024833621
61	0x3d2862e8	0.04110995
62	0xbde7b746	-0.113142535
63	0x3df5dd5c	0.120051116
64	0xbd89d412	-0.06729902
65	0xbd99a998	-0.075030506
66	0xbe271bad	-0.16319151
67	0x3cd3cf68	0.025855735
68	0xbdb822d6	-0.089910194
69	0xbe90ffff	-0.2832031
70	0x3d808e2e	0.062771186
71	0xbd8a92ab	-0.06766256
72	0xbded02f7	-0.11572831
73	0xbdedbb06	-0.116079375
74	0xbe58e7b9	-0.21182145
75	0x3dc51b61	0.09624363
76	0xbdcf036d	-0.10108075
77	0xbe4ca63b	-0.19985287
78	0xbd5e8050	-0.054321587
79	0xbc50a2b2	-0.012734102
80	0xbda5998e	-0.08085929
81	0x3bfd4f20	0.0077303797
82	0xbdb89916	-0.09013574
83	0xbdc8e3e3	-0.09809091
84	0xbdf24b58	-0.11830777
85	0x3c46376b	0.012098174
86	0xbe8afb10	-0.2714467
87	0xbd0818e4	-0.033226863
88	0x3c4e0d40	0.012576401
89	0xbdc3c9da	-0.095599845
90	0xbd5f701a	-0.054550268
91	0x3dddf670	0.1083802
92	0xbc9eff60	-0.019408882
93	0xbb359700	-0.0027708411
94	0xbda63a36	-0.081165716
95	0xbd484d68	-0.048901945
96	0xbde43a0e	-0.111438856
97	0xbc9254ec	-0.01786276
98	0x3d4b486a	0.049629606
99	0x3d8a1d78	0.06743902
100	0xbd7aa8a5	-0.06119599
101	0x3c9fcb9b	0.019506266
102	0xbd15f2a7	-0.036608364
103	0xbd2b4369	-0.041812334
104	0xbde99b34	-0.11406556
105	0xbda25c5e	-0.07927774
106	0xbd2ac650	-0.04169303
107	0x3be7d9c7	0.0070755216
108	0xbc1f48a0	-0.009721905
109	0xbdde6748	-0.10859543
110	0xbccea668	-0.025225833
111	0xbd91c13c	-0.07116935
112	0xbe3c4b4b	-0.18388097
113	0x3daedc64	0.0853813
114	0xbdfc8b1c	-0.123312205
115	0xbe422d1d	-0.18962522
116	0x3c8bf1d0	0.017083079
117	0xbe40feb6	-0.18847165
118	0xbdd40b42	-0.1035371
119	0xbea231d3	-0.31678638
120	0x3de2bd1a	0.110712245
121	0x3d644841	0.05573297
122	0x3ca76417	0.020433469
123	0xbdb845d4	-0.08997694
124	0xbe7061f7	-0.2347487
125	0xbe69dea2	-0.22838834
126	0xbd219104	-0.03944494
127	0xbd045b35	-0.032313544

encoder.3.weight f4 [64, 128]
0	0x3e4949b0	0.19657016
1	0x3d20756a	0.039174475
2	0x3e0aa38d	0.13538952
3	0xbca6af04	-0.020347126
4	0x3cc3481c	0.023838095
5	0x3da73676	0.081646845
6	0x39837a7f	0.00025077534
7	0xbd04792f	-0.032342132
8	0x3a8b4900	0.0010626614
9	0x3d5629d6	0.05228599
10	0xbd83901c	-0.06423971
11	0xbdafaea4	-0.08578232
12	0xbd8aa8a2	-0.067704454
13	0x3d9f8261	0.0778854
14	0x3ba3c7e8	0.004998196
15	0x3db1e4a6	0.08686189
16	0x3db854f7	0.09000581
17	0xbdb6a271	-0.08917702
18	0x3d32e89a	0.043678857
19	0xbd6c5707	-0.057700183
20	0x3d35f21c	0.044420347
21	0x3da2f0e8	0.079561055
22	0xbcf200a2	-0.029541317
23	0x3b17dac0	0.0023171157
24	0xbc6b0085	-0.014343386
25	0x3ba51d80	0.005038917
26	0xbe4da1c3	-0.20081238
27	0xbcd867ac	-0.026416622
28	0x3dde7992	0.108630314
29	0x3d8e9682	0.06962301
30	0xbd15177f	-0.03639936
31	0x3d3a9589	0.045552764
32	0x3d2ccd66	0.04218807
33	0xbd4a94f5	-0.049458463
34	0xbc27eab3	-0.010248828
35	0xba7da77e	-0.00096761424
36	0xbd9365c6	-0.07197146
37	0x3b3f1d98	0.0029161926
38	0x3d1f49c2	0.0388887
39	0xbdabe252	-0.083927765
40	0x3d99ffde	0.07519506
41	0xbd5b80bd	-0.05358957
42	0x3d9b9170	0.075960994
43	0xbd59aab3	-0.053141307
44	0x3b3671c6	0.002783881
45	0x3cb3898c	0.021916173
46	0xbd7fa030	-0.062408626
47	0xbd8495b0	-0.06473863
48	0xbd28aef2	-0.041182466
49	0xba0ef184	-0.0005452859
50	0x3b0590e0	0.0020380542
51	0xbdb40b45	-0.08791212
52	0xbdac7c54	-0.08422151
53	0x3db4c9b3	0.088275336
54	0x3d0da1b0	0.034578025
55	0x3d997dcf	0.07494699
56	0xbc1de1f8	-0.009636395
57	0x3d2d17b7	0.042258944
58	0x3cb07869	0.021541791
59	0x3cdbf4fb	0.026850214
60	0x3e2901a4	0.16504532
61	0x3c5ebaf0	0.013594374
62	0xbd40ed55	-0.047101337
63	0xbced0918	-0.028935
64	0xbcdd3cfa	-0.027006615
65	0x3d5cafa2	0.053878434
66	0x3d9a8645	0.07545141
67	0x3c97be44	0.018523343
68	0x3cff593c	0.03117048
69	0x3e2a2db4	0.16618997
70	0x3d5189a6	0.051156662
71	0xbc35cde4	-0.011096451
72	0xbd33a88b	-0.043861907
73	0x3d8ccadf	0.06874632
74	0x3da9aedd	0.08285306
75	0xbd8dca99	-0.06923408
76	0x3d9a1585	0.07523636
77	0x3d62696a	0.055276312
78	0x3d3bda82	0.045862682
79	0x3d74c6eb	0.059760015
80	0x3d4bf54a	0.049794473
81	0xbd03c4ce	-0.03217011
82	0x3daccbfb	0.08437344
83	0x3cb4f8c9	0.022091286
84	0xbbe20b4d	-0.00689832
85	0x3d23756c	0.039906904
86	0x3e191824	0.14950615
87	0x3da117f9	0.078659005
88	0xbc89b698	-0.0168107
89	0xbdb1437c	-0.0865545
90	0x3c7e19bc	0.015509065
91	0x3d3ede52	0.04659874
92	0x3df38423	0.118904375
93	0x3c5d4770	0.013505802
94	0xbdab0cea	-0.083520725
95	0x3d552622	0.05203832
96	0xbc89d040	-0.016822934
97	0xbd556311	-0.05209643
98	0x3d1ddb05	0.03853895
99	0xbda85c79	-0.08220763
100	0x3db4b88a	0.088242605
101	0x3dcbd2d9	0.099523254
102	0x3d3f03ee	0.046634607
103	0x3b50b720	0.0031847432
104	0xbd63497c	-0.055490002
105	0xbbf2b7c0	-0.0074071586
106	0x3d017e70	0.03161472
107	0x3d83e7d1	0.064407
108	0xbdb0d2fa	-0.086339906
109	0x3da36753	0.07978692
110	0xbd52e80e	-0.051490836
111	0x3da73729	0.08164818
112	0xbc3306eb	-0.010926942
113	0xbd81ef7a	-0.06344505
114	0x3c896cd8	0.016775534
115	0x3ce449d8	0.027867243
116	0xbccae434	-0.024767019
117	0x3df9f85c	0.12205574
118	0xbd80ea98	-0.06294745
119	0x3e14bbb5	0.1452473
120	0xbccb5738	-0.024821863
121	0xbd3342d3	-0.0437649
122	0xbd83d67a	-0.064373925
123	0xbd4a932a	-0.049456753
124	0x3bb3635d	0.0054744915
125	0x3d5ff9ee	0.05468171
126	0xbd352e0d	-0.04423337
127	0x3c22a5ed	0.009927255
128	0x3e0a46bb	0.13503544
129	0x3d2b8102	0.04187108
130	0xbd1c2364	-0.03811969
131	0x3c85d8b4	0.016338684
132	0xbd9768b7	-0.0739302
133	0xbcbf5b86	-0.023359071
134	0xbd9fb1b0	-0.07797563
135	0xbdad04e0	-0.084481955
136	0x3d25efe2	0.040511973
137	0x3d81205f	0.063050024
138	0x3d71a3fa	0.05899427
139	0xbd245c55	-0.040127117
140	0xbd0755c9	-0.033040795
141	0xbd98ca6e	-0.074604854
142	0x3d63731c	0.0555297
143	0x3d3a4d33	0.04548378
144	0x3bc8fb34	0.0061334614
145	0x3da71900	0.08159065
146	0xbd7d7d71	-0.06188721
147	0x3c1c6180	0.00954473
148	0xbc18b151	-0.009319619
149	0x3d64a965	0.05582561
150	0xbd52b119	-0.051438425
151	0x3d889a0b	0.06670006
152	0x3ded0c89	0.115746565
153	0x3d17f4a2	0.037098534
154	0xbda6e712	-0.08149542
155	0xbd7a789e	-0.061150186
156	0xbdc0db28	-0.09416801
157	0x3d29cf29	0.04145733
158	0x3d8ea4cf	0.069650285
159	0x3d458dc4	0.0482309
160	0xbc21acb8	-0.0098678395
161	0xbd5cabb3	-0.053874683
162	0xbcd71f85	-0.026260147
163	0x3d35afad	0.04435699
164	0xbda62a5a	-0.08113547
165	0xbd822aae	-0.06355797
166	0x3c9e4a40	0.019322515
167	0x3d6dfa09	0.05809978
168	0xbd70f5af	-0.058828052
169	0x3d98f95f	0.07469439
170	0xbd6ea054	-0.05825837
171	0xbca842b4	-0.020539619
172	0xbcfb0504	-0.03064204
173	0x3d0a5156	0.033768974
174	0xbc26a290	-0.010170594
175	0x3d9e226f	0.077214114
176	0xbd400962	-0.04688395
177	0x3b4725c1	0.0030387493
178	0xbd14f475	-0.036365945
179	0xbd8b90bf	-0.068147175
180	0x3d179612	0.037008353
181	0x3c84f7ae	0.016231384
182	0x3d31adfe	0.043378823
183	0xbbfb0fe0	-0.0076618046
184	0xbd1dc0e9	-0.03851405
185	0x3bd41f6d	0.006473473
186	0x3c84c838	0.016208753
187	0x3cf22a1f	0.0295611
188	0xbd9434eb	-0.07236656
189	0x3d5cf022	0.053939946
190	0x3d1115e6	0.035421275
191	0x3b951720	0.004549876
192	0x3d96e4f7	0.0736789
193	0xbd62a2b1	-0.055330936
194	0x3c3203be	0.01086515
195	0x3d1c309e	0.038132302
196	0xbc8d03fc	-0.017213814
197	0x3cee75d5	0.029108921
198	0xbde39021	-0.11111475
199	0x3bb02efa	0.005376694
200	0x3ce47f0f	0.027892618
201	0x3d7b4492	0.06134469
202	0xbd59e9b7	-0.053201403
203	0xbd6bf6da	-0.057608463
204	0xbdd964cb	-0.10614928
205	0xbdb03efc	-0.08605763
206	0xbc419a94	-0.011816639
207	0x3b6db524	0.0036271298
208	0x3cbe2978	0.023213133
209	0xbb22e000	-0.0024852753
210	0xbd8ef272	-0.069798365
211	0xbd22e9bc	-0.039773688
212	0xbd68726b	-0.056749742
213	0x3d84a484	0.06476691
214	0xbda45311	-0.08023656
215	0x3da2d031	0.079498656
216	0x3ba11d90	0.004916854
217	0xbd821f42	-0.06353618
218	0x3d054885	0.032539863
219	0x3da3dde5	0.080013074
220	0x3d64b235	0.055834014
221	0x3d83cd25	0.064356126
222	0x3da0091f	0.0781424
223	0x3da39479	0.07987303
224	0xbda73506	-0.0816441
225	0xbcbfbb24	-0.023404665
226	0x3be90e2a	0.007112284
227	0xbdadfa30	-0.08494985
228	0xbdb8c699	-0.090222545
229	0x3d9e6c47	0.07735496
230	0x3d9efd14	0.077631146
231	0xbc10cdd0	-0.008838132
232	0xbd8f52e4	-0.06998232
233	0x3db3c4d9	0.0877778
234	0x3c9ac325	0.01889188
235	0xbde8e294	-0.11371341
236	0xbc8cb828	-0.017177656
237	0xbd98bbce	-0.07457696
238	0xbd92b97c	-0.071642846
239	0x3c68ca70	0.014208421
240	0x3cc89930	0.024487108
241	0xbd490bf9	-0.049083684
242	0xbd8b5a98	-0.06804389
243	0x3dfe9159	0.124300666
244	0x3d5b922e	0.053606205
245	0x3d3a736c	0.04552023
246	0x3d07b186	0.033128284
247	0xbd190c1d	-0.037365068
248	0xbd31b0aa	-0.04338137
249	0xbd2d664f	-0.042333897
250	0x3d84d3b9	0.064856954
251	0x3d04ee9e	0.032454126
252	0x3daaec8f	0.08345901
253	0x3d317a7c	0.0433297
254	0x3c3398f8	0.010961764
255	0xbe1d14b8	-0.15339935

encoder.3.bias f4 [64]
0	0x3bba1e59	0.0056798873
1	0xbd0fe7be	-0.035133116
2	0x3ce77d24	0.028257914
3	0x3d9a9099	0.07547111
4	0xbd8ffbf7	-0.0703048
5	0xbdc08ab9	-0.09401459
6	0x3d8dcefd	0.069242455
7	0xbd1f597b	-0.038903695
8	0x3c81f69f	0.015864668
9	0xbdf919d3	-0.12163129
10	0xbcf93460	-0.030420482
11	0xbc2bbc70	-0.010481939
12	0xbd66ef7a	-0.056380726
13	0x3c6af6f8	0.0143411085
14	0x3bc4ef72	0.0060099894
15	0xbd0e93cc	-0.03480892
16	0x3d7c0835	0.061531264
17	0xbd373bd0	-0.044734776
18	0xbdd1d8e8	-0.1024645
19	0xbd51bdd8	-0.05120644
20	0x3d6eddb0	0.058316886
21	0x3db3ecdb	0.08785411
22	0x3d0a2b91	0.033732954
23	0xbba00fb4	-0.0048846845
24	0x3b7e8516	0.003883665
25	0xbc1ddc6a	-0.00963507
26	0xbd2dc28a	-0.042421855
27	0xbcaab2e1	-0.02083725
28	0xbdeb1dd8	-0.114803016
29	0xbcdf5e25	-0.027266571
30	0x3d7550f1	0.059891645
31	0xbdb2468a	-0.087048605
32	0x3dee5b98	0.11638564
33	0xbe0bc387	-0.13648807
34	0xbdc78db0	-0.097438216
35	0xbcd1a25f	-0.02559012
36	0xbce68225	-0.02813823
37	0xbd4a3bd9	-0.04937348
38	0xbd291f6f	-0.041289743
39	0xbc540e94	-0.012942929
40	0x3c06a563	0.008218142
41	0x3963a864	0.00021711137
42	0x3d3712a9	0.04469553
43	0xbd11b0da	-0.03556905
44	0xbc276f6e	-0.010219438
45	0x3c22c3df	0.009934395
46	0xbd1818c3	-0.03713299
47	0xbd2213e4	-0.03956975
48	0xbc7aab97	-0.015299699
49	0xbcc1cc60	-0.023657024
50	0x3cd60ce1	0.026129188
51	0xbc536400	-0.01290226
52	0xbd8f911c	-0.07010099
53	0xbd50a8c9	-0.050942216
54	0xbd83ae14	-0.06429687
55	0xbd55026c	-0.052004263
56	0x3d1bcd49	0.038037572
57	0xbccc5b96	-0.024946015
58	0xbd82c8b8	-0.0638594
59	0xbc51413c	-0.012771901
60	0xbc9456e3	-0.018107837
61	0xbd58dc7e	-0.052944653
62	0x3d088282	0.033327587
63	0x3d3c6e2d	0.04600351

encoder.5.weight f4 [16, 64]
0	0x3d37fea6	0.044920586
1	0x3df0faea	0.11766608
2	0xbda4f8a1	-0.08055235
3	0x3d2f44c3	0.042790186
4	0x3c99da27	0.018780781
5	0x3e16da1c	0.1473164
6	0x3daea78f	0.08528053
7	0xbde547de	-0.11195348
8	0xbbe082ae	-0.0068515157
9	0x3d5201de	0.051271312
10	0x39a1f4c2	0.00030890672
11	0x3d120f69	0.035659228
12	0x3dc3cda7	0.095607094
13	0xbd8209b7	-0.06349509
14	0xbd902d29	-0.070398636
15	0x3dc3e9ff	0.095661156
16	0x3dbba1eb	0.09161743
17	0x3d010bd7	0.031505432
18	0x3dd8b081	0.105805404
19	0xbc96dd1c	-0.01841598
20	0x3d8c51de	0.068515524
21	0x3e1e3b86	0.15452394
22	0x3c9535ab	0.018214067
23	0x3d66e706	0.056372665
24	0x3dc0706f	0.09396445
25	0x3dc09e2a	0.094051674
26	0x3d91152f	0.070841186
27	0xbced3bd2	-0.028959189
28	0x3b051a83	0.0020309992
29	0xbd37491d	-0.04474746
30	0x3dae8d97	0.085231
31	0xbd7307d9	-0.059333656
32	0x3dcc1bc5	0.09966234
33	0x3e1e4cc2	0.15458968
34	0x3de8ec26	0.11373167
35	0x3dbb2e43	0.09139683
36	0xbc226c39	-0.009913498
37	0x3d79c60f	0.0609799
38	0xbd59b647	-0.05315235
39	0x3da22bc1	0.07918502
40	0x3d226820	0.039650083
41	0x3d84a8d5	0.06477515
42	0xbd86df5e	-0.06585573
43	0x3d678296	0.05652102
44	0x3dabb420	0.083839655
45	0xbc8312e7	-0.016000224
46	0xbba9cb78	-0.005181726
47	0xbd675245	-0.056474943
48	0xbc499fe1	-0.0123061845
49	0xbd949aef	-0.07256114
50	0xbcf0eb86	-0.029409181
51	0x3d06da91	0.032923285
52	0x3c87755d	0.016535455
53	0x3d43706f	0.047714647
54	0x3de4fa4f	0.11180555
55	0xbca7f99d	-0.020504767
56	0x3c1390e0	0.009006709
57	0xbdd78db8	-0.105250776
58	0xbda97ef0	-0.082761645
59	0xbc6e6766	-0.014551019
60	0x3d870d36	0.06594317
61	0xbdb5c187	-0.08874803
62	0x3dc4a8a8	0.09602481
63	0xbe06bbdc	-0.131576
64	0xbe5c6d95	-0.21526177
65	0xbe4d3d21	-0.2004285
66	0x3d8b3462	0.067971006
67	0xbdef9f1d	-0.1170027
68	0x3c320b5b	0.010866965
69	0xbdbd36cd	-0.09238968
70	0xbd5328e9	-0.051552687
71	0xbda28164	-0.079348356
72	0xbdefd80d	-0.1171113
73	0xbe130100	-0.1435585
74	0xbda8cc4e	-0.08242093
75	0xbde5440b	-0.11194619
76	0xbd2e4f32	-0.042555995
77	0x3d58cc51	0.052929226
78	0xbdac3c9f	-0.0841
79	0xbe1deb89	-0.15421881
80	0xbde3657d	-0.11103342
81	0x3be50912	0.0069896067
82	0xbd81a456	-0.06330173
83	0x3d47eaaa	0.048807777
84	0xbbecd889	-0.0072279614
85	0xbc5dff57	-0.013549647
86	0xbe0c6b8e	-0.13712904
87	0xbdde527e	-0.10855578
88	0xbd565d7f	-0.05233526
89	0xbdaf7584	-0.08567336
90	0x3cd49c3d	0.025953406
91	0x3bc0b86e	0.0058813607
92	0xbdc6a343	-0.096991085
93	0x3d18fe2d	0.037351776
94	0xbdd35496	-0.10318868
95	0xbe05df67	-0.13073502
96	0xbe497c9a	-0.19676438
97	0xbda5a4f5	-0.08088104
98	0xbde37366	-0.11105995
99	0x3d30c511	0.043156687
100	0x3dbab657	0.0911681
101	0xbe60e2d0	-0.21961522
102	0xbc79b645	-0.01524121
103	0x3da0a63d	0.078442074
104	0xbdef44ea	-0.11683066
105	0xbe40ebe0	-0.18839979
106	0xbd9ac19a	-0.07556458
107	0xbe282798	-0.16421354
108	0x3d2eedb5	0.042707164
109	0xbe499089	-0.19684042
110	0x3dd45f63	0.10369756
111	0xbd6aafb8	-0.057296485
112	0xbe87c386	-0.2651636
113	0xbdc2f336	-0.09519045
114	0x3df99c96	0.121880695
115	0xbd8ca473	-0.06867304
116	0x3dba882f	0.09108006
117	0xbe0521de	-0.130012
118	0x3dddd18c	0.108309835
119	0x3e002aef	0.12516378
120	0xbdb9b605	-0.090679206
121	0xbd8a07a9	-0.06739742
122	0xbd0f5d55	-0.035001118
123	0xbdadec71	-0.08492363
124	0xbdb4706c	-0.08810505
125	0x3d69ca0d	0.057077456
126	0xbdbd3144	-0.09237912
127	0x3c6cf945	0.014463727
128	0xbd4bd6ff	-0.049765583
129	0xbe2969c4	-0.16544253
130	0xbd47de7e	-0.04879617
131	0x3d62818a	0.05529932
132	0xbdf54eb0	-0.11977899
133	0xbc9641a5	-0.018341849
134	0x3b67f8e4	0.0035396153
135	0xbcc583c9	-0.024110692
136	0xbe60a3d4	-0.21937495
137	0x3d63d053	0.055618595
138	0x3d24e801	0.04026032
139	0x3c6110bd	0.013736901
140	0x3d585107	0.05281165
141	0xbd246538	-0.040135592
142	0xbdb40437	-0.087898664
143	0xbbb0483c	-0.0053797048
144	0xbe651540	-0.22371387
145	0xbdd0d9f9	-0.10197825
146	0x3d4c3b94	0.049861506
147	0x3db4005e	0.087891325
148	0xbc80e48e	-0.015733983
149	0x3b3cfe5e	0.0028838138
150	0xbdd58508	-0.10425764
151	0x3cd6d325	0.026223728
152	0xbb6177d6	-0.0034403703
153	0xbdc0c197	-0.09411924
154	0xbdc9c5a4	-0.0985215
155	0x3df7e546	0.12104277
156	0xbdcc68a1	-0.09980894
157	0xbd23554a	-0.03987626
158	0xbd12b8bf	-0.03582072
159	0xbd84435e	-0.06458162
160	0xbe221837	-0.1582955
161	0x3dc0bbb9	0.09410805
162	0x3c180547	0.009278602
163	0x3df63b0b	0.1202298
164	0xbca3878a	-0.019962091
165	0xbc88515e	-0.016640361
166	0x3d32aab9	0.043619845
167	0xbe05f609	-0.13082136
168	0xbd870ac4	-0.0659385
169	0xbdba9ecd	-0.0911232
170	0x3da2afce	0.07943688
171	0xbe0d90db	-0.13824789
172	0xbd69f0e9	-0.057114515
173	0x3da93e52	0.0826384
174	0x3d9435c0	0.072368145
175	0xbd4aa2a3	-0.04947151
176	0xbd077661	-0.03307188
177	0xbdccd67e	-0.10001849
178	0x3dd8b295	0.10580937
179	0xbe02defd	-0.12780376
180	0xbca111c0	-0.019661784
181	0xbc688210	-0.014191166
182	0xbd49df46	-0.049285196
183	0xbd9e5175	-0.077303804
184	0x3d9895c0	0.074504375
185	0xbcb2781f	-0.021785794
186	0xbd6f645c	-0.05844532
187	0x3d431134	0.047623828
188	0x3de58a57	0.11208027
189	0xbd33aebe	-0.04386782
190	0xbe06f1de	-0.13178203
191	0xbe00f02e	-0.12591621
192	0xbddf6684	-0.10908225
193	0xbd1897cc	-0.03725414
194	0xbddaa7fe	-0.10676573
195	0xbdd47e89	-0.10375697
196	0xba944346	-0.0011311553
197	0xbd26a0ae	-0.04068058
198	0xbddc5f0f	-0.107603185
199	0xbdee09eb	-0.116229855
200	0xbe015c0f	-0.12632774
201	0x3d31f4b0	0.043446243
202	0xbd4d13c2	-0.05006767
203	0x3d572d80	0.052533627
204	0x3dc1c863	0.09462049
205	0xbd842aa2	-0.06453444
206	0x3dd2b306	0.10288052
207	0xbe02182f	-0.12704538
208	0xbdfedc06	-0.1244431
209	0x3c35de46	0.011100357
210	0xbab332e9	-0.0013671789
211	0x3ddf61fe	0.109073624
212	0xbd61d1b0	-0.055131614
213	0x3cca7dc5	0.024718175
214	0xbe12a356	-0.1432012
215	0x3d3c3272	0.045946546
216	0xbe0dafe8	-0.13836634
217	0xbd2f6de8	-0.042829424
218	0x3d3c1c86	0.04592564
219	0x3db7bddc	0.0897176
220	0xbcef20b8	-0.029190406
221	0xbd339863	-0.0438465
222	0xbdf657ae	-0.12028442
223	0xbd236922	-0.039895184
224	0x3d024d3a	0.03181193
225	0xbcad21c2	-0.021134261
226	0xbcee90b2	-0.02912173
227	0xbd94a61d	-0.07258246
228	0xbe04c860	-0.12967062
229	0xbd0d14bb	-0.0344436
230	0xbd792926	-0.060830258
231	0xbdec6d64	-0.11544302
232	0x3d187211	0.037218157
233	0xbe2279a7	-0.15866719
234	0x3d2818f4	0.041039422
235	0x3c8e73cc	0.0173892
236	0xbd7c800c	-0.061645553
237	0x3cb770bc	0.022392623
238	0x3c9763f3	0.018480277
239	0x3d343d71	0.044003908
240	0xbe1a9345	-0.15095241
241	0x3d37b333	0.044848632
242	0xbcc52c86	-0.024069082
243	0xbdb93edc	-0.090451926
244	0x3d9da99a	0.076983646
245	0xbdd64f3e	-0.10464333
246	0xbc000267	-0.007813073
247	0xbdf9e17d	-0.122012116
248	0x3d90582c	0.070480675
249	0xbd06819e	-0.032838456
250	0x3d55e4d0	0.052220166
251	0x3d9bdc40	0.07610369
252	0xbdb49400	-0.08817291
253	0x3d8d8a80	0.069111824
254	0xbdee0aff	-0.11623191
255	0xbe0530d4	-0.13006908

encoder.5.bias f4 [16]
0	0x3d44dce5	0.048062224
1	0x3c137dc2	0.009002151
2	0xbd8fd44a	-0.07022913
3	0x3d832770	0.064040065
4	0x3c06d462	0.008229347
5	0xbe00c27b	-0.12574188
6	0xbd38fad3	-0.04516108
7	0x3d7f387c	0.062309727
8	0xbd64cbac	-0.0558583
9	0xbd2fe579	-0.04294345
10	0xbca87a58	-0.02056615
11	0xbdc7c77f	-0.09754848
12	0x3b35a367	0.0027715804
13	0x3d4b88f3	0.04969115
14	0x3da9ab5c	0.08284637
15	0x3d3109ef	0.043222364

decoder.0.weight f4 [64, 16]
0	0xbdf5234a	-0.119696215
1	0x3cd4e2f8	0.025987133
2	0xbda9de71	-0.082943805
3	0xbe4daf05	-0.20086296
4	0xbda7a194	-0.081851155
5	0x3e60eb7c	0.2196483
6	0xbde58c73	-0.11208429
7	0x3e5d1a9c	0.21592182
8	0xbd7aa96c	-0.06119673
9	0xbdce2f57	-0.10067623
10	0x3e32a946	0.17447385
11	0x3d5d4c10	0.054027617
12	0x3b47e9d0	0.0030504353
13	0xbe6fc9be	-0.23416802
14	0xbe0ae64b	-0.13564412
15	0xbd83c2d7	-0.06433647
16	0x3e55da94	0.20884162
17	0x3e174b54	0.14774829
18	0xbbae3325	-0.0053161555
19	0xbdfd9910	-0.1238271
20	0x3dd5cd8b	0.10439595
21	0x3db0a766	0.08625679
22	0xbe1717de	-0.14755198
23	0xbe71306c	-0.23553628
24	0x3d63212a	0.05545155
25	0x3d7a1da2	0.061063416
26	0x3e65cf6d	0.22442408
27	0xbe3836ca	-0.1798965
28	0x3ddc602c	0.10760531
29	0xbcf7d0db	-0.030250957
30	0x3c346e3e	0.011012612
31	0x3e2b9c22	0.16758779
32	0x3e02b828	0.12765563
33	0x3e3edba3	0.18638472
34	0x3e295f39	0.16540231
35	0x3e29124a	0.16510883
36	0xbe3ca956	-0.18423972
37	0xbd0a9a81	-0.033838753
38	0x3e4cfe9f	0.20019005
39	0x3caab463	0.020837968
40	0xbd3ce9e3	-0.04612149
41	0xbe4fc1ac	-0.20288724
42	0xbd722838	-0.059120387
43	0x3e0ccca6	0.13749942
44	0xb97eb7fa	-0.00024291864
45	0xbd53fcd1	-0.051754776
46	0xbd13ee85	-0.03611614
47	0x3e39ac08	0.18132031
48	0xbe582f90	-0.21111894
49	0xbe71f9ff	-0.23630522
50	0xbce5a77b	-0.028033962
51	0x3e5c109f	0.21490715
52	0xbdcdbac7	-0.100453906
53	0x3e04be86	0.12963304
54	0x3d03c360	0.032168746
55	0x3e4c8342	0.19971946
56	0xbe309ee3	-0.1724811
57	0xbce59c58	-0.028028652
58	0x3e11642c	0.14198369
59	0x3db142ee	0.08655344
60	0x3dcac894	0.099015385
61	0x3e30c641	0.17263128
62	0xbe004147	-0.12524901
63	0x3e87b5de	0.2650594
64	0x3e20bc86	0.15696916
65	0xbdb686b3	-0.089124106
66	0x3e1354b0	0.14387774
67	0x3db6ea33	0.08931389
68	0xbe438789	-0.19094671
69	0xbe589e1a	-0.21154061
70	0xbdc1b984	-0.094592124
71	0xbb51f530	-0.0032037012
72	0xbd035dfd	-0.032072056
73	0x3e33cdab	0.17558925
74	0x3dba9f77	0.09112447
75	0xbe4fe783	-0.20303158
76	0x3c63cc1d	0.013903645
77	0x3e3746d3	0.17898111
78	0xbcc80ea5	-0.024421046
79	0x3d55262e	0.052038364
80	0xbe800a77	-0.25007984
81	0x3e7db21d	0.24774976
82	0xbd8f01a5	-0.069827355
83	0xbd3a68ff	-0.04551029
84	0xbdee171c	-0.116255015
85	0xbe6cdab0	-0.23130298
86	0x3e39ac61	0.18132164
87	0xbe240d75	-0.16020758
88	0xbd78875b	-0.06067596
89	0xbcb1f21d	-0.021721894
90	0x3df82a53	0.12117448
91	0x3e88f8af	0.2675223
92	0xbdc98e77	-0.09841626
93	0xbe61e5bb	-0.22060291
94	0x3e0dc69a	0.13845292
95	0xbe03e346	-0.12879667
96	0xbe567528	-0.20943129
97	0xbd5f26e8	-0.054480463
98	0x3ce31a00	0.027722359
99	0x3ddc1620	0.107464075
100	0xbb92b400	-0.004477024
101	0xbd85146c	-0.06498036
102	0xbe6f6996	-0.23380122
103	0xbbd1f8c0	-0.006407827
104	0x3e7ed818	0.2488712
105	0x3c1ebf00	0.009689093
106	0x3d016e00	0.031599045
107	0x3e5aa856	0.21353278
108	0xbd4ac328	-0.04950252
109	0x3e2f08ee	0.1709325
110	0xbe78e5d2	-0.2430642
111	0x3d66e0d0	0.05636674
112	0xbe1f9d19	-0.15587272
113	0x3e905e74	0.28197062
114	0xbe42bb83	-0.19016843
115	0x3d89fd70	0.067377925
116	0x3e036bb5	0.12834056
117	0x3e51f7c1	0.20504667
118	0x3c7be293	0.015373844
119	0xbe7625d7	-0.24037872
120	0x3e1b875b	0.15188353
121	0xbcd6af1d	-0.026206547
122	0xbe3ed675	-0.18636496
123	0x3d6b1d60	0.05740106
124	0xbddea6f5	-0.10871688
125	0xbea87c28	-0.32907224
126	0x3c9ec7fa	0.019382466
127	0x3c3f23c8	0.011666246
128	0xbdfa2ebd	-0.12215946
129	0xbd030fbf	-0.03199744
130	0xbd9b74cb	-0.07590636
131	0x3c77fb38	0.015135579
132	0xbd59bc04	-0.05315782
133	0x3e30504b	0.1721813
134	0x3dd16e9c	0.10226175
135	0x3df2ffe5	0.11865214
136	0x3d3562a5	0.044283528
137	0xbea3450e	-0.31888622
138	0xbd80c827	-0.06288176
139	0xbe4ea698	-0.20180738
140	0xbde3f599	-0.111308284
141	0xbd38824c	-0.045046136
142	0xbe1e432d	-0.15455313
143	0xbdc97b82	-0.0983801
144	0x3df7d3ba	0.121009305
145	0x3e324dfb	0.1741256
146	0x3ddbf232	0.107395545
147	0x3e0261f1	0.12732674
148	0x3e0a7660	0.13521719
149	0x3d6bd77c	0.05757855
150	0xbe44637c	-0.19178575
151	0xbdc6d7ce	-0.0970913
152	0xbde563e5	-0.11200694
153	0xbebfef4c	-0.37487257
154	0x3dd3db76	0.10344593
155	0x3de15b8b	0.110037886
156	0xbd972839	-0.07380719
157	0x3e4e995a	0.20175686
158	0xbe13d560	-0.14436865
159	0xbd8a2bcb	-0.06746634
160	0xbe5b370c	-0.21407717
161	0x3dac9324	0.08426502
162	0x3e657198	0.22406614
163	0xbdde5268	-0.108555615
164	0xbe744374	-0.23853856
165	0x3e7b9bb0	0.24571109
166	0x3d617898	0.055046648
167	0x3d70b0d8	0.0587624
168	0x3cb076a0	0.02154094
169	0xbe496ff4	-0.19671613
170	0x3d8a9444	0.06766561
171	0x3e72ba2c	0.23703831
172	0x3c926ca0	0.017874062
173	0x3e1b96de	0.1519427
174	0x3e0ce752	0.13760117
175	0x3e3d3d96	0.18480524
176	0x3dd49914	0.1038076
177	0xbc92cf73	-0.017921185
178	0x3db78d16	0.08962457
179	0xbe78194d	-0.24228401
180	0xbd78e609	-0.060766254
181	0x3b99c743	0.0046929433
182	0x3e67a2a0	0.2262063
183	0xbd5750cc	-0.05256729
184	0x3d8ec3bf	0.06970929
185	0x3e4276f3	0.18990688
186	0xbe0d0dd8	-0.13774812
187	0xbde32ee5	-0.11092929
188	0xbc66a740	-0.014077961
189	0xbb94b9e8	-0.0045387633
190	0xbdba1458	-0.090859115
191	0xbd9e7a83	-0.07738211
192	0xbe7a36fc	-0.24435037
193	0x3da596e9	0.080854245
194	0x3e77331c	0.2414059
195	0xbd4195bd	-0.047261942
196	0x3e098d02	0.13432696
197	0xbe5c3320	-0.21503878
198	0x3e3e99d1	0.18613364
199	0x3c44ce7e	0.012012122
200	0x3d967b6f	0.07347762
201	0xbe588763	-0.21145396
202	0xbdf9dbc3	-0.12200119
203	0x3e724a42	0.2366114
204	0x3e476176	0.19470772
205	0x3e6be2de	0.23035762
206	0x3e6e7b8d	0.23289318
207	0x3d5451b5	0.051835734
208	0xbd7c8e20	-0.06165898
209	0xbb587a84	-0.003303201
210	0x3e505af5	0.20347197
211	0xbe1bc979	-0.15213574
212	0x3e1c6481	0.15272714
213	0xbd8158ad	-0.06315742
214	0x3de7d1d9	0.11319322
215	0xbabc221f	-0.0014353431
216	0x3dc692c4	0.09695962
217	0x3dc989ca	0.09840734
218	0xbddf4f10	-0.10903752
219	0xbd269a66	-0.04067459
220	0xbc72c04b	-0.014816354
221	0xbe5b06bd	-0.21389289
222	0xbbbc2d86	-0.0057427315
223	0xbdcbd84f	-0.09953367
224	0xbe5bdaa1	-0.21470119
225	0xbe3b0a59	-0.18265666
226	0x3e111ad1	0.14170386
227	0xbd4a14f6	-0.049336396
228	0x3e063135	0.13104708
229	0xbe0fc0ea	-0.14038435
230	0x3e1c9894	0.15292579
231	0xbe443efd	-0.19164653
232	0x3d72bb4f	0.059260663
233	0xbe580ad7	-0.21097885
234	0xbdfaa531	-0.12238539
235	0x3e27b7cd	0.16378708
236	0xbddc4cfa	-0.107568696
237	0xbe7c62d0	-0.24647069
238	0x3d4ce095	0.050018866
239	0x3e4b9f19	0.1988491
240	0x3e54f458	0.20796335
241	0x3db05438	0.086098135
242	0x3e6efd00	0.233387
243	0xbe4032f0	-0.18769431
244	0x3da46a14	0.08028045
245	0x3dcd1014	0.10012832
246	0xbe39a608	-0.18129742
247	0xbd85fd98	-0.0654251
248	0x3e408b58	0.18803155
249	0xbcfb35b0	-0.030665249
250	0xbe1224ee	-0.142719
251	0x3e490908	0.19632351
252	0x3e44e3be	0.19227502
253	0x3dfa80cc	0.12231597
254	0x3e7c66c2	0.24648574
255	0x3e017f7c	0.12646288

decoder.0.bias f4 [64]
0	0xbda03f85	-0.078246154
1	0xbdf8fca8	-0.12157565
2	0x3dc27797	0.09495466
3	0xbd8bb7e9	-0.068221875
4	0xbd96707e	-0.07345675
5	0x3e51a18a	0.20471779
6	0xbd0d47d0	-0.034492314
7	0x3d9f7ebe	0.07787846
8	0x3b7e7178	0.0038824957
9	0x3e3b9fbc	0.18322653
10	0xbd245fe8	-0.040130526
11	0xbe3a4418	-0.18190038
12	0x3e2b5988	0.16733372
13	0xbdbb0139	-0.091310926
14	0x3d59ef58	0.05320677
15	0xbe479db4	-0.19493753
16	0x3e11973c	0.14217848
17	0xbe19450a	-0.14967743
18	0x3d06bdfa	0.03289602
19	0xbe825329	-0.2545407
20	0x3d3ec26b	0.04657213
21	0xbe418646	-0.18898878
22	0xbdab8694	-0.08375278
23	0xbd16d30b	-0.03682236
24	0x3e5c01ff	0.21485136
25	0xbe3d2700	-0.18471909
26	0xbd0ea50f	-0.03482538
27	0xbe11cdb0	-0.1423862
28	0xbe7136a1	-0.23555996
29	0xbdee9acc	-0.11650619
30	0x3e5bbb17	0.21458088
31	0x3db20c6e	0.08693777
32	0x3e12193b	0.14267437
33	0xbe5a4197	-0.21314083
34	0x3e3b80ff	0.18310927
35	0xbda23973	-0.07921114
36	0x3e3106d3	0.1728776
37	0xbdcb4b08	-0.099264205
38	0x3d5277e3	0.051383864
39	0x3e3e3d15	0.18577988
40	0x3e1f5cd6	0.15562758
41	0x3c9ab396	0.018884461
42	0xbdbe8bdd	-0.093040206
43	0x3e08850a	0.13332
44	0x3e5174fe	0.20454785
45	0x3cefb9d3	0.029263413
46	0xbe36ba00	-0.17844391
47	0x3df8ab89	0.12142093
48	0x3daaa870	0.08332908
49	0xbe0d0f07	-0.13775264
50	0x3d36edf8	0.04466054
51	0xbe42bd9c	-0.19017643
52	0xbd1c4543	-0.03815199
53	0x3e43a828	0.19107115
54	0xbe19f172	-0.1503351
55	0xbe3801d2	-0.17969444
56	0xbe25f856	-0.16208014
57	0x3c873ab9	0.016507493
58	0xbdd5c666	-0.10438232
59	0xbe36daa0	-0.17856836
60	0x3dd4bba8	0.10387355
61	0xbe51ddfe	-0.2049484
62	0xbdae6855	-0.085159935
63	0xbdd485ac	-0.103770584

decoder.3.weight f4 [128, 64]
0	0xbd1d0730	-0.038336933
1	0xbdbd0ca6	-0.09230928
2	0x3da5510d	0.080721
3	0xbdd41f78	-0.10357565
4	0xbb2c7571	-0.0026315118
5	0x3e0517c9	0.12997355
6	0xbcc40718	-0.023929164
7	0xbc8a2c9f	-0.01686698
8	0xbe03c764	-0.1286903
9	0xbdaf66e8	-0.0856455
10	0x3d17b3f4	0.03703685
11	0xbcba9546	-0.022776257
12	0xbdab0684	-0.08350852
13	0xbd8d697a	-0.06904884
14	0x3debced1	0.115140565
15	0x3cf2f650	0.029658467
16	0x3db29449	0.087196894
17	0xbdb5f834	-0.088852316
18	0x3df601dc	0.120120734
19	0xbd97667e	-0.07392596
20	0xbdea181c	-0.1143038
21	0xbd9ad2da	-0.07559748
22	0x3dc99c6e	0.0984429
23	0xbd2fa35a	-0.042880394
24	0x3d8be03a	0.06829877
25	0x3b971700	0.004610896
26	0xbd8be581	-0.06830884
27	0xbdf529d8	-0.11970872
28	0x3d818d95	0.06325833
29	0x3dec6e7e	0.11544512
30	0xbc6a3228	-0.014294185
31	0x3d565ce5	0.052334685
32	0xbd9af27b	-0.07565781
33	0xbd4ef258	-0.050524086
34	0x3d264af5	0.04059883
35	0x3de45a62	0.11150052
36	0x3bf1392e	0.0073615527
37	0xbd70ed68	-0.05882016
38	0x3d9a4923	0.07533481
39	0x3ca015ab	0.019541582
40	0x3de0ddbb	0.10979792
41	0xbde49166	-0.11160545
42	0x3d92ab55	0.07161585
43	0xbdb719f2	-0.089404956
44	0xbd009c3f	-0.031399008
45	0xbd78d923	-0.060753953
46	0x3d30dc20	0.043178678
47	0x3b1b5681	0.0023702683
48	0x3cd312eb	0.025765857
49	0x3b56ced6	0.0032777092
50	0xbcdc3ed0	-0.02688542
51	0x3dd80eed	0.10549722
52	0x3da96f0e	0.08273135
53	0xbd9049d0	-0.070453286
54	0x3c7feaf0	0.015619978
55	0xbbc07ddf	-0.00587438
56	0x3d0ba434	0.034092143
57	0xbd4fb0e8	-0.05070582
58	0xbcdaf838	-0.026729688
59	0x3dd30562	0.10303761
60	0x3ccfd556	0.025370281
61	0xbdc22744	-0.094801456
62	0xbd11cc58	-0.035595268
63	0x3dd73ed4	0.105100304
64	0x3c8e4d50	0.01737085
65	0x3dd38e96	0.103299305
66	0x3d861bcf	0.06548273
67	0x3d52a6e3	0.051428687
68	0xbdbd2e2b	-0.092373215
69	0x3dc1437b	0.09436699
70	0xbd2ab600	-0.041677475
71	0x3d32eed1	0.043684784
72	0x3da3e8d8	0.08003396
73	0xbd5147b0	-0.051093757
74	0xbdaea740	-0.08527994
75	0x3cdfae38	0.027304754
76	0xbda6de4f	-0.08147871
77	0x3c758683	0.014985683
78	0xbd563ed3	-0.052306008
79	0xbc4682d0	-0.012116149
80	0x3cde79b1	0.027157636
81	0x3df35c46	0.11882834
82	0x3ddb123d	0.10696838
83	0xbdbbf21f	-0.0917704
84	0xbd512cd9	-0.05106816
85	0xbda7fcd2	-0.082025185
86	0xbdc6b18c	-0.09701833
87	0x3d18eea8	0.037336975
88	0x3d8fc9f1	0.07020939
89	0x3c3e5510	0.01161696
90	0xbbf3ec9e	-0.0074439785
91	0xbdf2caca	-0.11855085
92	0xbba4c0a2	-0.0050278464
93	0xbd224170	-0.039613187
94	0xbd789ad9	-0.06069455
95	0xbd0394a8	-0.03212419
96	0x3e01f829	0.12692322
97	0x3ae1a4b2	0.0017215221
98	0x3daf3b57	0.0855624
99	0xbd7a0acf	-0.061045464
100	0x3cef9223	0.029244488
101	0xbbc1a9c0	-0.0059101284
102	0x3dbeaf9e	0.0931084
103	0x3df64179	0.12024207
104	0xbc57bf35	-0.013168146
105	0xbc11fd48	-0.008910485
106	0x3cdd4275	0.027009228
107	0x3dca5560	0.09879565
108	0x3c8e41cd	0.01736536
109	0xbd45f0dd	-0.04832541
110	0xbd23de8e	-0.040007167
111	0x3aa5bb8f	0.0012644398
112	0xbd01837b	-0.03161953
113	0x3bc94b8a	0.006143038
114	0x3dabf5f2	0.0839652
115	0xbdef49ce	-0.11683999
116	0xbd5f918d	-0.054582167
117	0x3db9e04b	0.090759836
118	0x3d968528	0.07349616
119	0x3d636994	0.05552061
120	0x3d29cbf8	0.041454285
121	0x3d848366	0.06470375
122	0x3d5f368e	0.054495387
123	0xbd9322e8	-0.07184392
124	0x3ce302b4	0.02771125
125	0x3dd70d46	0.105005786
126	0x3cc60ccd	0.024176026
127	0xbd097e2c	-0.033567593
128	0x3dd10bf9	0.10207362
129	0xbdc0aa5e	-0.09407495
130	0xbdb23930	-0.08702314
131	0x3da592a6	0.080846116
132	0xbdac104d	-0.084015466
133	0xbc78b8fb	-0.0151808215
134	0xbd3dd7ec	-0.046348497
135	0xbc491ea0	-0.012275368
136	0x3c8f18ac	0.01746782
137	0xbdda46a0	-0.10658002
138	0x3d63f060	0.05564916
139	0x3ddae008	0.10687262
140	0x3da4ccaf	0.08046853
141	0x3dd09bb0	0.10185945
142	0xbd841d2a	-0.06450875
143	0x3d57d1cc	0.052690312
144	0xbcf91f26	-0.03041036
145	0x3c973568	0.018458083
146	0x3db4d4c7	0.088296466
147	0xbdf6036c	-0.120123714
148	0xbdaf2635	-0.08552209
149	0xbcd7f400	-0.026361465
150	0xbd990e94	-0.07473484
151	0x3c95a16c	0.018265449
152	0x3dda013e	0.10644768
153	0x3d259b6c	0.040431425
154	0x3c6122a6	0.013741171
155	0x3cd64b68	0.026159003
156	0x3d3bda98	0.045862764
157	0xbda9e2e0	-0.08295226
158	0x3e058402	0.13038638
159	0xbd6b140a	-0.057392158
160	0x3d83dd60	0.06438708
161	0xbd99c6fc	-0.075086564
162	0xbdad9df8	-0.08477396
163	0xba5f1d10	-0.00085111056
164	0x3e0e5331	0.13898923
165	0xbcc91e18	-0.024550483
166	0xbc59016a	-0.013244966
167	0x3ae9d38c	0.0017839535
168	0xbcf78cda	-0.03021853
169	0xbcdf15e3	-0.027232116
170	0x3ce68c58	0.028143093
171	0xbd3626db	-0.04447065
172	0xbc8fe0d2	-0.017563257
173	0xbd9c708e	-0.076386556
174	0x3d0b32d5	0.033984024
175	0x3d9a2437	0.07526439
176	0xbd8e97b6	-0.0696253
177	0xbdfd0bb0	-0.12355745
178	0x3ce5d8f8	0.02805756
179	0x3d8a3075	0.06747524
180	0xbc1353b7	-0.008992127
181	0xbc9a9c7e	-0.01887345
182	0x3d592c84	0.05302097
183	0xbb6d4f1f	-0.003621049
184	0xbd90eb4d	-0.0707613
185	0xbcf951d5	-0.030434528
186	0x3d30a6ba	0.043127753
187	0x3cc9bfe0	0.024627626
188	0xbd9518eb	-0.07280143
189	0xbd63a71c	-0.05557929
190	0x3dcf9424	0.101356775
191	0xbd545a68	-0.05184403
192	0xbd9143fa	-0.070930436
193	0x3d559f8c	0.05215411
194	0xbd334d15	-0.043774683
195	0x3d9c45a5	0.07630471
196	0xbdc1c043	-0.09460499
197	0xbd35e7e0	-0.044410586
198	0x3d1ce248	0.038301736
199	0x3e168987	0.147009
200	0xba0dcbec	-0.000540911
201	0xbca5e655	-0.020251432
202	0x3dccdab4	0.10002652
203	0xbcfd2301	-0.03090048
204	0xbe0784be	-0.13234231
205	0xbda11e63	-0.07867124
206	0xbbabd217	-0.0052435505
207	0xbd26d1ec	-0.04072754
208	0xbda99efa	-0.082822755
209	0xbc216320	-0.009850293
210	0x3cd155c1	0.025553586
211	0x3dd590c5	0.10428003
212	0x3de05fca	0.1095577
213	0xbb6b3f00	-0.0035895705
214	0xbdc8ed10	-0.09810841
215	0xbaab5f2b	-0.0013074627
216	0xbd953e44	-0.07287267
217	0xbdec1c7c	-0.115288705
218	0xbd84b583	-0.06479933
219	0xbd4bed10	-0.049786627
220	0xbcdce962	-0.026966754
221	0xbdd9a054	-0.10626283
222	0x3dc763e4	0.097358495
223	0xbdd7805d	-0.1052253
224	0xbc65b659	-0.014020526
225	0x3dcf39a2	0.101184145
226	0x3d3ba340	0.045809984
227	0x3d102725	0.03519358
228	0xbd594fe0	-0.05305469
229	0x3db7509e	0.089509234
230	0x3b3a4002	0.00284195
231	0xbd355026	-0.04426589
232	0xbdfbdced	-0.122979976
233	0x3aaf5a5e	0.0013378372
234	0x3d839f8e	0.06426917
235	0xbc424dca	-0.011859367
236	0x3ce585f1	0.02801797
237	0xbd7729de	-0.060342662
238	0x3c4897c0	0.012243211
239	0x3d8f4073	0.069947146
240	0x3dc69894	0.09697071
241	0x3b614d1c	0.0034378236
242	0x3cd50bc8	0.026006594
243	0xbcd3d302	-0.025857452
244	0x3d828757	0.0637347
245	0xbe4a8408	-0.19776928
246	0xbdb9d468	-0.090737164
247	0xbdaa8665	-0.08326415
248	0x3d2c6f3f	0.04209828
249	0x3d770d99	0.060315702
250	0xbd769288	-0.060198337
251	0xbb011740	-0.0019697696
252	0xbcd3360b	-0.025782606
253	0xbd5f9ef0	-0.054594934
254	0x3c9e758c	0.01934316
255	0xbdb36e1e	-0.087612376

decoder.3.bias f4 [128]
0	0xbd6bce7e	-0.057569973
1	0x3d376ecf	0.04478341
2	0x3e3b8370	0.18311858
3	0x3dd1a2e9	0.10236151
4	0x3e19af59	0.15008296
5	0xbd5fa982	-0.054605015
6	0x3e0fc522	0.14040044
7	0xbd8767c9	-0.06611592
8	0x3d84f1d9	0.06491441
9	0xbe02100d	-0.12701435
10	0x3c7d6209	0.015465268
11	0x3dbe06de	0.092786536
12	0x3d49d680	0.04927683
13	0xbce56d7f	-0.028006313
14	0x3e40a0c1	0.18811323
15	0x3c349ae4	0.011023257
16	0xbcaa0a48	-0.020756856
17	0x3de5a0db	0.11212321
18	0x3de105c6	0.10987429
19	0xbdfccfa1	-0.123442896
20	0x3dd7c0d0	0.10534823
21	0x3d4513ad	0.048114467
22	0xbcb4334e	-0.02199712
23	0x3d670c33	0.05640812
24	0x3d7e6afc	0.062113747
25	0x3e1cc547	0.1530963
26	0x3e15b849	0.1462108
27	0x3b9ab0af	0.0047207694
28	0x3df19e38	0.11797756
29	0xbdd3c64d	-0.10340557
30	0x3e266ede	0.1625323
31	0x3e451f8d	0.19250317
32	0x3e23e30c	0.1600458
33	0x3ca871bb	0.020562043
34	0xbc5e0964	-0.013552044
35	0xbd600455	-0.05469163
36	0x3d9f782a	0.07786591
37	0xbdeb5254	-0.11490312
38	0x3e0f3b1b	0.1398739
39	0x3e097cb2	0.13426474
40	0xbd74eccc	-0.05979614
41	0x3cb8f815	0.022579232
42	0x3e043cfb	0.12913887
43	0xbe0b45ac	-0.13600796
44	0x3dd7e135	0.10541002
45	0x3e33f01e	0.17572066
46	0x3e431082	0.19049266
47	0x3dd4ef3e	0.10397194
48	0x3e4e8aa5	0.20170076
49	0x3d2d94ec	0.04237835
50	0x3dc54979	0.096331544
51	0x3d627613	0.055288386
52	0x3e0aaab0	0.13541675
53	0x3da62ff0	0.08114612
54	0xbc9a3056	-0.018821876
55	0x3d5b29f3	0.053506803
56	0x3e22707e	0.15863225
57	0x3d9e9b81	0.07744504
58	0xbd47b152	-0.04875309
59	0x3e112353	0.14173631
60	0x3e0c3c6d	0.13694926
61	0xbd801540	-0.06254053
62	0x3cc50b98	0.02405338
63	0xbcc67aa9	-0.02422841
64	0x3dc506fb	0.09620472
65	0xbb5b4ac3	-0.003346131
66	0x3dc3d519	0.095621295
67	0x3e2cd1c0	0.16876888
68	0x3e06c3a9	0.13160576
69	0xbd96a6ef	-0.07356059
70	0x3e1c1821	0.1524358
71	0x3e37d4a5	0.17952211
72	0xbdc8e180	-0.09808636
73	0xbd611f6e	-0.054961614
74	0xbc509f4a	-0.01273329
75	0x3de84165	0.11340598
76	0xbd00906e	-0.03138774
77	0x3da7230c	0.081609815
78	0x3e188b8d	0.14896984
79	0xbd4a4fcc	-0.049392506
80	0x3d44f30e	0.048083358
81	0x3d9c3000	0.07626343
82	0x3c5dacae	0.01352994
83	0x3e3777c1	0.17916776
84	0x3da684f9	0.08130831
85	0x3e085c39	0.1331643
86	0x3e0d1805	0.13778694
87	0x3cfef7ed	0.03112408
88	0xbc923799	-0.017848777
89	0x3e6083b9	0.21925248
90	0x3e2cdd69	0.16881336
91	0x3de520c5	0.11187891
92	0x3e189219	0.14899482
93	0x3e1cb63c	0.15303892
94	0xbd172b72	-0.036906667
95	0xbd3df20c	-0.046373412
96	0x3e1f141d	0.15535016
97	0x3e05e3b4	0.13075143
98	0x3e2e0340	0.16993427
99	0x3d86cae4	0.06581667
100	0xbda4ba42	-0.08043338
101	0x3df8cda9	0.121486016
102	0x3c7a3434	0.015271235
103	0x3e32150f	0.17390846
104	0x3de77e7c	0.11303422
105	0xbe01a5ff	-0.12660979
106	0xbd9ae0db	-0.07562419
107	0x3a98de07	0.0011662849
108	0x3dfbf99c	0.123034686
109	0x3c3cb1e9	0.011517026
110	0xbd84dc38	-0.06487316
111	0x3e384c0e	0.17997763
112	0xbd89ec71	-0.06734551
113	0x3e3314a0	0.17488337
114	0xbdd585ec	-0.10425934
115	0xbc80a214	-0.015702285
116	0x3e0e9d22	0.13927129
117	0x3daa8abe	0.08327244
118	0x3d601eae	0.05471676
119	0xbd8483c4	-0.06470445
120	0x3e7daa2f	0.24771951
121	0xbdfc85bc	-0.12330195
122	0xbc407ecd	-0.011748982
123	0x3d8868b0	0.066605926
124	0x3df356e0	0.118818045
125	0x3c56409e	0.013076929
126	0x3dd8bd2d	0.105829574
127	0xbe0a3bc2	-0.13499358
