app/models/valve_autoencoder_v1.pth (torch, 146217 bytes, 12 tensors)

encoder.0.weight f4 [128, 64]
00000000: f871 7cbd f88f c4bc 4c33 adbd a00b e7bd
00000010: 2cd6 b2bd 6615 cbbd 6025 553c 50f5 5cbd
00000020: 887e b2bd f476 ce3d f00e 4fbc f065 42bd
00000030: 0814 10bd a81d 473d 2073 d1bd 8805 b33c
00000040: 26ec ef3d 9000 023d 301e c23d bc46 17bd
00000050: 9c5f a73d 78ab a23d 2074 bbbd bcae ecbd
00000060: 4854 04bd 9c09 d7bd c621 adbd 7822 ebbd
00000070: e8d7 73bd b053 edbd 0074 2f3d 3053 c03d
00000080: b09f 603d d087 32bd 1aba bb3d c6da d83d
00000090: a255 f73d 222c c63d 50bd 8fbc 16d2 e6bd
000000a0: 3639 f93d 3c39 ebbd 0429 0f3d 3ccb b43d
000000b0: c4ee 8c3d 9659 f93d a0ff 50bd 70c3 ba3c
000000c0: c038 18bd 045b c03d 4682 aabd 7c41 8abd
000000d0: c4f8 93bd 8008 c7bb d285 ccbd f8b4 f23d
000000e0: 78b4 983d 4691 953d fc88 473d 804d 173b
000000f0: c08a 5fbc 5480 fbbd c408 a0bd 2a5d cf3d
00000100: c537 c0bd 18f1 85bc 51c3 bdbd db10 bcbc
00000110: 031c e53d e429 e13d 71ee d53d dcfe 00be
00000120: 06df c53c 8c45 0cbd 1fda 5f3d 6a33 d73d
00000130: 6994 bdbd 2d4f 9dbd 5c6a 993d c127 b43d
00000140: d690 ed3d e3af b33d 7146 d33d 2451 edbd
00000150: ab78 d73c 9eed c03d 2d24 94bd 03df a0bd
00000160: b48d b43d 0c4d 7fbd 5fad c8bc 09d5 c4bd
00000170: 80eb ef3d 2f3f f2bd 44ef 79bd 5d31 7bbd
00000180: e2f1 e7bd a6df 5cbd 17ed 1abd c4bc f8bd
00000190: 7e3a 99bb d90b 66bd 79bc d63c ec09 9dbc
000001a0: d221 d9bd 8163 883d b62a 59bd 7e89 1ebd
000001b0: 759d 9e3d 3412 a53c 15d3 8a3d 01d0 853d
000001c0: 066b d4bd b1c1 b8bd cc38 ce3d 5632 a33b
000001d0: df60 1ebd 9fe5 8a3d fb54 7d3c d12c 6f3b
000001e0: 5070 3e3d 3f63 9b3d 9c5d 913d 4f96 f3bd
000001f0: 4c7e cdbd 38bb cd3c be3f cfbd 5681 00be
00000200: abb1 403c 34ea e03d ebc3 23be 804a bcbd
00000210: 4225 7fbc b251 093e d006 db3d 8aad 91bd
00000220: bf2b c8bd 9d49 4fbd cc04 dbbd b8a4 e23a
00000230: 6dd3 ac3d ded7 dcbd ae9a 80bd 258c 183d
00000240: ecb8 b5b9 2e0c 703d a159 733d 096e 173d
00000250: 2de5 55bd 5d5e fd3c 2e10 853d 5e0e 99bd
00000260: 6b78 293d b07f 2c3d 9786 653d e521 1abd
00000270: 1575 6cbc ed3c 9f3c 8696 023e a425 c6bc
00000280: 2992 6abd 3043 363d 0004 793d 643c 943c
00000290: 6a85 c83c 8c78 0d3e d1fb 873d bf90 ef3c
000002a0: 8676 543d b8fc 4e3d fbff 1bbd 5ac6 23bd
000002b0: 9459 713d 098e d73d 4707 1b3e b5ed ee3d
000002c0: 0f33 aabd 7406 88bc 1ccf ee3d 67ba 283d
000002d0: 1530 debc b126 89bd 91cf 48bd f577 ad3d
000002e0: 35f5 e33d 65d1 7dbd b92b bd3d 5c0c 08be
000002f0: 938a 4d3c 1aba 0dbe 1251 a3bd 0be7 7ebd
00000300: 741e 81bd c827 4bbd 869a edbd a8de 3ebd
00000310: 42e7 aebd 90b7 993c 70a6 07bc d8e2 b8bd
00000320: 64ec a93d f80f 953d 78ed 673d 1210 91bd
00000330: c6f5 e4bd 7007 82bd c002 7ebb 3058 1a3c
00000340: 9846 533d 065a b93d 1475 67bd 9000 193c
00000350: 9038 bc3d dcbe b03d 001f 0cbb 3257 f0bd
00000360: f838 75bd 48c8 3a3d 2634 8e3d b019 0f3c
00000370: 1059 64bd e2cd cbbd fc35 0c3d 7a7c afbd
00000380: a40c 8d3d 463f fdbd f844 2d3d f008 42bd
00000390: 6802 bebc 9c6a 913d b89a ed3d 90fd b7bd
000003a0: 2081 93bb f43a c9bd c648 963d 2ca9 b33d
000003b0: 908c 893c f852 9f3d 9633 96bd a2ce a3bd
000003c0: 70bc a03c a8eb 023d c8cb 283d c0b9 9abc
000003d0: 28e4 b6bd b0bf c0bc 2a7b b6bd d05c fb3c
000003e0: f020 533c b4bd 39bd 5e24 8dbd 000a ef3a
000003f0: 9075 bdbd 2818 9d3d 98b1 403d 0006 da39
-0.061632127 -0.02399443 -0.0845705 -0.11281514 -0.08732256 -0.09916191 0.013009399 -0.053944886
-0.0871554 0.10081282 -0.012637839 -0.047460496 -0.035175353 0.048612267 -0.102270365 0.021853223
0.117149636 0.031738818 0.09478414 -0.036932692 0.08172533 0.07942861 -0.091530085 -0.115567654
-0.03230694 -0.1049988 -0.084537074 -0.11481184 -0.059532076 -0.11588228 0.042835236 0.09390867
0.05483979 -0.043586552 0.091663554 0.10588603 0.1207688 0.096763864 -0.017546326 -0.112705395
0.12169115 -0.11485526 0.034951225 0.088278264 0.068814784 0.1217529 -0.051025033 0.02279827
-0.037163496 0.0939236 -0.08325629 -0.067507714 -0.07225183 -0.0060740113 -0.09986462 0.11850923
0.07456297 0.07303099 0.048714623 0.0023086965 -0.01364392 -0.12280336 -0.07814172 0.101251915
-0.09385637 -0.016350314 -0.09265769 -0.022957256 0.111869834 0.10994318 0.1044587 -0.12597221
0.024154197 -0.034246013 0.054651376 0.10507853 -0.092568226 -0.07681117 0.074909896 0.08796645
0.11599891 0.08773782 0.1031617 -0.11587742 0.026302656 0.09420322 -0.072334625 -0.07855036
0.0881609 -0.062329337 -0.024496732 -0.09610946 0.1171484 -0.118284576 -0.061019197 -0.061326373
-0.11325432 -0.053924225 -0.037823763 -0.12145379 -0.0046761623 -0.056163643 0.026212918 -0.01916977
-0.10602154 0.06659604 -0.053019248 -0.03870534 0.07744876 0.020150281 0.06778542 0.06533814
-0.103719756 -0.09021319 0.10069427 0.0049803657 -0.038666602 0.06782078 0.015462155 0.0036495219
0.04649383 0.07587289 0.07097933 -0.118939035 -0.10033855 0.025113687 -0.1011958 -0.12549338
0.011761109 0.10982171 -0.15992706 -0.09193897 -0.015572848 0.1341007 0.10694659 -0.07113178
-0.09773969 -0.050607312 -0.10694274 0.0017291522 0.08438764 -0.10783361 -0.06279503 0.037243027
-0.00034660788 0.058605365 0.05941165 0.036970172 -0.052220512 0.030928785 0.06497227 -0.074734434
0.041374605 0.04211396 0.056036558 -0.03762998 -0.014432211 0.019438231 0.12752733 -0.02418787
-0.057268295 0.04449767 0.06079483 0.018095203 0.02447768 0.13815516 0.06639827 0.029243825
0.051870845 0.05053398 -0.03808592 -0.039984085 0.05892332 0.10525138 0.15139495 0.11666433
-0.0831052 -0.01660464 0.11660597 0.041193392 -0.027122537 -0.06696833 -0.049026076 0.084701456
0.11130754 -0.061967272 0.09236855 -0.13285965 0.012545246 -0.13840523 -0.07974447 -0.06223206
-0.063046366 -0.049598485 -0.11601739 -0.04659906 -0.08540203 0.018764287 -0.008279428 -0.09027642
0.08297041 0.072784364 0.056622952 -0.07083143 -0.1117969 -0.06349075 -0.0038758963 0.00942044
0.051580995 0.09050374 -0.05650814 0.009338513 0.09190476 0.086301535 -0.0021380782 -0.11735381
-0.059868783 0.04560116 0.0694354 0.008734152 -0.055749 -0.099513784 0.03423117 -0.08568664
0.06887177 -0.12365584 0.0423021 -0.047371805 -0.023194507 0.07100412 0.11601776 -0.0898391
-0.004501477 -0.098256975 0.07338099 0.08772501 0.016790658 0.07779497 -0.07334058 -0.079983965
0.019621104 0.03196302 0.041209966 -0.0188874 -0.08930236 -0.023528904 -0.089102104 0.030683905
0.012886271 -0.04534693 -0.06891702 0.0018237233 -0.09250939 0.07670623 0.047044367 0.0004158467

encoder.0.bias f4 [128]
00000000: a04d 4b3c 35f9 bebd 11f8 29be 4811 713d
00000010: 6fdc ecbc a07b b8bd 2e52 d63b e346 04be
00000020: b0d4 a0bd cc07 a2bc e833 10be 219a 85be
00000030: 7af2 35be 2606 febd 3063 73bc 5e95 ba3d
00000040: 6cd4 c93d c805 bbbd 0cbf 2fbd f07f 09bd
00000050: baa2 00be 5242 203d b1e6 07bd e857 e43c
00000060: c824 a2bd a7bd 98bd 6161 8fbd b00e 26bc
00000070: 6c13 183d 808a 143c 1e49 22be ba1c b7bd
00000080: 9c6d 9ebd 0aec 8cbc 9a8e be3d 3551 91bc
00000090: 1c50 d0bb 5fc6 babd 4b46 d0bc c266 81be
000000a0: 79dc 8ebd 7da4 5a3d ff87 3b3d 78a0 62bd
000000b0: 2249 3a3d 44a4 46bd f685 963d 94ce e9bd
000000c0: b285 bcbd 585c 8cbc c0a0 433b a15b 233d
000000d0: a819 a4bd bd5a 6fbd af16 373a cc75 663a
000000e0: 6da3 e13d a8e9 633d 4133 b1be eb2e 25be
000000f0: 8885 a8bb 70b1 4ebd 1cd6 083d 5483 2e3d
00000100: f0b4 913c 23f1 503c ef8a c53d e390 ce3d
00000110: f9c9 cf3d 1c4e f43c 5a85 a4be d111 60be
00000120: 30e2 863c 7810 b63d cc30 183c 3217 37bd
00000130: f54d b1bd 7e46 c9bd de9c f2bd 1584 62be
00000140: be5c 0ebe a006 a73d f4c8 63bd 78a6 70be
00000150: d359 87bd f75c b43c 6c50 08bd 6104 71be
00000160: dac7 8dbd d0ac 1abd a650 87bd dc01 81be
00000170: 155d 0cbd 2f0c 85be 8f32 61bd 682b 9fbc
00000180: f01a e0bd e435 2cbe 0137 ff3c 92cb febd
00000190: 8053 c83b 8dec 963d 3066 7dbc 7a78 5c3d
000001a0: e2b5 053e ec71 593d b774 443b 96b7 d1bd
000001b0: 509f 64be d451 bbbd 74b0 87bd fa31 cdbd
000001c0: ba04 f03d a531 ffbd 52ae 84bd fe0a b33d
000001d0: 3f9f f5bc ce6d 15bd 504b 47be f7b4 8abe
000001e0: e128 14be 6df9 28be 1bd5 02be 1d4d 21bc
000001f0: 2281 16be 7435 a7bd 65e0 41bd 6a5a 433d
0.012408644 -0.09324876 -0.16598536 0.05885437 -0.028913705 -0.090079546 0.0065405583 -0.12917666
-0.07853067 -0.019779108 -0.140823 -0.26094154 -0.17768279 -0.124035165 -0.014855191 0.09110521
0.098549694 -0.09131962 -0.042906806 -0.033569276 -0.12562075 0.039125748 -0.03317899 0.027873948
-0.07917172 -0.07458048 -0.070009954 -0.010135338 0.037127897 0.009066224 -0.15848204 -0.08941026
-0.0773575 -0.017202396 0.09304543 -0.017738918 -0.006357206 -0.091198675 -0.025424143 -0.2527371
-0.069756456 0.053379524 0.045783993 -0.055328816 0.0454799 -0.0484965 0.0734977 -0.11416355
-0.09205188 -0.017133877 0.0029850453 0.039882306 -0.08012706 -0.058436144 0.0006984276 0.0008791357
0.11017499 0.055642754 -0.34609416 -0.16131179 -0.0051428713 -0.050462186 0.033407316 0.042605713
0.017786473 0.012752804 0.0964564 0.10086229 0.10145945 0.029822402 -0.3213299 -0.21881796
0.016465276 0.0888986 0.009288978 -0.044699855 -0.08657447 -0.098278984 -0.11846326 -0.22120698
-0.13902566 0.081555605 -0.055611566 -0.23501003 -0.066089295 0.022016985 -0.03327982 -0.23536827
-0.06922884 -0.037762463 -0.06607179 -0.2519673 -0.034268457 -0.25985858 -0.054979857 -0.019429877
-0.10942638 -0.16817433 0.031154158 -0.12441172 0.0061134696 0.07369337 -0.015466258 0.053825833
0.13057664 0.05308716 0.0029976794 -0.10240094 -0.22326398 -0.09146467 -0.06625453 -0.10019298
0.117196515 -0.12460641 -0.064785615 0.08742331 -0.029983161 -0.03648167 -0.19462323 -0.2709119
-0.14468719 -0.16501398 -0.12776606 -0.009845045 -0.14697698 -0.08164492 -0.04733314 0.047693647

encoder.3.weight f4 [64, 128]
00000000: 68e9 6abc 2dc6 053d 9025 f8bd f208 a8bd
00000010: 6e91 92bd 99ad bcbd 5c6a 8abd c59a c2bd
00000020: 4521 cfbd 10a4 273c 10cb 82ba d036 19bd
00000030: a6a9 19bd 5808 92bc 8492 a53c 7292 7e3d
00000040: fe4e a7bc 6c75 97bd 1a71 2d3d e07d 31bc
00000050: b0af 5ebd c075 44bc c79f d4bd d32c 9b3d
00000060: 759f 83bd 5188 d1bb 05d5 d2ba 88c1 a3bd
00000070: 208a b53c 3279 54bd 2048 9c3c 9e7e 7cbd
00000080: 38a0 3bbc f0aa f3bb 88e3 cf3c cc6e 6d3d
00000090: 0a9e 873d ef20 1ebd c56b b5bd 872a a1bd
000000a0: 4f03 bcbd b612 6e3d 721a 1e3c 1d2f 04bd
000000b0: 7d60 ff3c 2045 2f3b 4ea6 853c a510 3abd
000000c0: 050a 783d 2d98 9c3d e078 97bb 83a7 9e3b
000000d0: 6f1e 963d 7421 de3c 7ebf cabb 9953 8a3c
000000e0: 886d 34bd 25b9 113d 7e02 c5ba 647d f8bd
000000f0: 48e3 9c3d 7a36 293d 2f99 71bd 9ed8 46bd
00000100: f5ce 883d d650 b0bd 3748 ae3d 162c ab3d
00000110: 0a7b bdbd b094 db3c 39bf 08bd 3104 a53c
00000120: fe05 5ebd 479e cdbd 8f98 8bba fd79 b3bc
00000130: 7924 96bd 8a0c 0bbd 3e1a 3a3d 2675 35bd
00000140: a806 f93c a1dd 333d 00e8 5e3a 732f aebc
00000150: 4396 fbba 4a1e 193d e0ac 78bc f67d 72bd
00000160: 46a0 38bd 9e34 413d 9e74 7cbb 9455 423d
00000170: 76a4 f93c 9e23 07bd a6aa 83bc 1b30 1ebc
00000180: 60a2 b5bb 779d 70bd a5d8 83bd 2889 9fbc
00000190: 1475 9bbd d8c4 23bc 00f8 ac3b 0edb bcba
000001a0: cf31 93bd 3fc5 693d ac82 813b d392 a7bd
000001b0: 9077 bfbd b0e4 5ebc 0cb1 a3bd 16c8 ee39
000001c0: a2ea 8dbd 1596 493d 6e08 593d 1336 ab3c
000001d0: c2fe 4b3d 0ca4 473d 9a92 42bd cc06 c8bc
000001e0: 3e51 543b bb8a a2bd 6a94 efbc bb49 75bc
000001f0: a8b9 ffbc c8f8 c9bd 5460 153d 0010 843b
00000200: ce49 8bbd e52e 4abd ae9e e13a 6545 913d
00000210: f10d 99bd 5ca4 a4bd 93a1 9f3b 61e5 903c
00000220: 5945 8bbd 6403 d1bc 6c65 1abd 220a 063d
00000230: 6e93 cc3d 28f9 6b3c d21a 81bd 2044 0bbb
00000240: 736b f73c 0633 f8bc 9367 30bd d48a b1bd
00000250: e0dc 93bd 4bf5 5ebd 5caf 883d df16 b23d
00000260: 7ae5 1dbd dd1b b4bd 43a4 75bd 0048 a43a
00000270: 7cf5 80bc 74f1 5fbd 94f7 883d 487d 70bc
00000280: ff3e 863d e54e d6bb 3dd1 82bd 3f45 ac3d
00000290: b3af 41bd 8741 8a3d 50c4 cdbc 5a13 fa3c
000002a0: 0f7e 813d 27ed 9f3d 6901 9c3d cbc6 91bd
000002b0: a0e7 89bd ce36 1f3d ecf9 773c d5c2 63bd
000002c0: 419d 1fbc 7021 b73b 294a 81bd 4dee 7b3d
000002d0: 38e6 50bd 9cc3 223c e69b 62bc daff 273c
000002e0: d0d8 73bd 7dd7 1e3d e49f ca3b ce91 373d
000002f0: dd00 39bd c4fc 1bbd 9895 84bd 8032 cbbb
00000300: 0ca4 b0bd e0b2 c5bc b230 983a 9e92 593d
00000310: d0e5 763d 90fe fc3c 0832 b33d 8131 a2bc
00000320: 2540 2dbd efc4 c43d bf57 01bd 48f5 20bc
00000330: 5bde b43d 6a94 673d 912d b0bd d1d1 d9bc
00000340: e49c d53d 39b1 9c3d 319d 8abd 63c6 3abd
00000350: df4f 2dbd c9b8 f53c d88a 7dbc 01d6 b23d
00000360: 4c3a 933d 8d3c 8f3d 9bcb 8c3d e24d 653d
00000370: 9f4f 803d 09d5 5bbb 1fd4 9abc e008 8c3d
00000380: e202 98bd 269f 1bba e823 d03c 2c9d 0cbd
00000390: 40b2 6dbc 6eb0 bebd 97f9 a83d 00d5 a3bd
000003a0: 3706 8bbd abb0 a9bc 8d58 b23d 14cf 77bd
000003b0: cd3b bb3d a854 08bc 9224 a5bd bbcb 87bd
000003c0: 0471 a1bc b98a 47bd ce85 3a3d ced7 543d
000003d0: 42fd 7ebd b119 b1bd 63d1 bdbc 0274 c63c
000003e0: 4538 683d 58c6 c6bd 475d 72bc 6074 203d
000003f0: a6d2 82bd 5b91 8cbd 10eb 373d 269e 363d
-0.014337875 0.0326597 -0.121165395 -0.08204831 -0.07156645 -0.092127986 -0.06758568 -0.09502176
-0.101137675 0.010231987 -0.000997873 -0.03740579 -0.037515305 -0.017826244 0.020211466 0.06215138
-0.020423409 -0.07395443 0.04234419 -0.010833234 -0.054366767 -0.011990964 -0.103820376 0.07576909
-0.064268984 -0.006394424 -0.0016085213 -0.079958975 0.02216059 -0.051873393 0.01907736 -0.06164419
-0.011451773 -0.007436149 0.02537705 0.057966992 0.066219404 -0.038605627 -0.08858446 -0.078694396
-0.091803186 0.058123313 0.00964986 -0.032271493 0.031173939 0.0026744083 0.016314652 -0.04542603
0.06055643 0.07646213 -0.0046225637 0.0048417463 0.073300235 0.027115561 -0.0061873784 0.016885566
-0.04404977 0.03557696 -0.001503065 -0.12133291 0.07660538 0.04131172 -0.058983978 -0.048546426
0.06680099 -0.08609168 0.08509868 0.08358018 -0.092519835 0.026804298 -0.03338549 0.0201436
-0.054204933 -0.10039955 -0.0010650324 -0.021908754 -0.07331175 -0.033947505 0.045435183 -0.044301175
0.030398682 0.043912534 0.00085031986 -0.02126286 -0.0019194562 0.0373824 -0.015177935 -0.059202157
-0.045074724 0.04716932 -0.0038521658 0.047444895 0.030473929 -0.03299295 -0.016072582 -0.009655024
-0.0055430382 -0.05874392 -0.06437806 -0.01947458 -0.0759069 -0.009995662 0.0052785873 -0.0014408545
-0.071872346 0.057072874 0.003952345 -0.08182301 -0.093489766 -0.013604328 -0.079927534 0.00045543973
-0.06929518 0.049215395 0.052986555 0.020899808 0.049803503 0.04874043 -0.04750309 -0.024417304
0.0032397057 -0.07936617 -0.029245574 -0.014971192 -0.031216457 -0.098619044 0.03646882 0.0040302277
-0.068011865 -0.04936113 0.0017213428 0.07093314 -0.07473362 -0.080391616 0.004871556 0.017687501
-0.068003364 -0.025514312 -0.03769438 0.032724507 0.099890575 0.014402665 -0.06303944 -0.0021250322
0.030202603 -0.030297767 -0.043067526 -0.086690575 -0.07219863 -0.05443315 0.06674072 0.086957686
-0.038548924 -0.08794377 -0.059971105 0.0012533665 -0.015742056 -0.054673627 0.06687847 -0.014678307
0.06554984 -0.0065401667 -0.06387565 0.08411645 -0.0472867 0.067507796 -0.025118023 0.030526806
0.06322872 0.07808905 0.076174565 -0.07117995 -0.06733632 0.038870625 0.01513527 -0.05560573
-0.009742082 0.005588703 -0.06312973 0.06150656 -0.051000804 0.009934332 -0.013831114 0.010253871
-0.05953294 0.038779724 0.006183611 0.044816785 -0.04516684 -0.038082853 -0.06473845 -0.0062010884
-0.086250395 -0.024133146 0.0011611192 0.05311834 0.06027776 0.030883104 0.08749777 -0.019798996
-0.0422975 0.096078746 -0.03157782 -0.009824105 0.088314734 0.056538023 -0.08602441 -0.026589306
0.10430315 0.0765099 -0.06768263 -0.045599353 -0.0423125 0.029995339 -0.015474997 0.08732224
0.071888536 0.06993971 0.06874772 0.055982478 0.062651865 -0.0033543727 -0.018899975 0.0683763
-0.07422425 -0.0005936496 0.025407746 -0.03432958 -0.01450783 -0.09310995 0.082507305 -0.07999611
-0.06788295 -0.020714125 0.08708296 -0.06050022 0.091422655 -0.008320965 -0.08063616 -0.066306554
-0.01970721 -0.04871628 0.045537762 0.05196362 -0.062253244 -0.08647478 -0.023171132 0.024225239
0.056694288 -0.097058 -0.014792747 0.039173484 -0.06387834 -0.06863662 0.044901907 0.044584416

encoder.3.bias f4 [64]
00000000: 51c3 86bc e73d 84bb b0bb 0ebe b82d f6bb
00000010: 6c69 fbbc 455c 16bc fdb0 1cbb 0353 a9bd
00000020: d4e0 94bc 3927 ae3d c6d4 c3bc 4180 d93c
00000030: 4868 b1bc 757e 9d3d de24 7b3d 6fa3 9b3a
00000040: 8485 8cbd 409f 433d 7755 f53c e42f f3bd
00000050: 9498 413d 98f1 203d 8a69 d9b9 a9bb 78bc
00000060: 388b fcbc 4b7e b53c 645b 7ebd d402 0b3d
00000070: dc44 9bbc 53a3 023c 1a6c 523d cfd3 093c
00000080: 294b 943d 6ebf b4bd 6671 86bd 259c 54bd
00000090: f5d8 41bd 100f 9dbd ba47 b43c ccc5 38bd
000000a0: 111c 70bb 9450 653d 5cc6 283d aa11 273e
000000b0: 7f74 9dbb 6247 46bd a531 173e dab4 a8bd
000000c0: df6e 98bd 1690 9fbd 49d3 4ebd 5473 3b3c
000000d0: 13f4 ebbb 184c 623d 0f90 09bc c676 40bd
000000e0: e57d 4fbd 4d56 e53c d2fc 053d d354 bdbd
000000f0: c560 5cbd 5a01 e23d 1dd6 e4bc 8dbf 063d
-0.016450556 -0.0040356996 -0.13938785 -0.0075127743 -0.030689918 -0.009177272 -0.0023909204 -0.08267786
-0.018173613 0.08503575 -0.02390517 0.026550414 -0.02165617 0.076901354 0.061314456 0.0011874269
-0.068614036 0.047759295 0.02994798 -0.11874369 0.04726465 0.0392929 -0.00041468098 -0.01518146
-0.030828103 0.022154948 -0.062098876 0.033938244 -0.018953733 0.00797351 0.051372625 0.0084123155
0.07240898 -0.08825575 -0.06564598 -0.051906724 -0.047326047 -0.076688886 0.022006858 -0.04511051
-0.0036637823 0.05598505 0.041204795 0.16315332 -0.004805147 -0.04840792 0.14765032 -0.0823762
-0.07443022 -0.07791154 -0.050494466 0.011441071 -0.007200727 0.05524835 -0.008396163 -0.04698827
-0.05065717 0.027995253 0.03271181 -0.092446946 -0.053803224 0.11035414 -0.027934128 0.03289752

encoder.5.weight f4 [16, 64]
00000000: 95ce 493d f10c 8f3d d1f3 9a3d 9036 6f3d
00000010: 0d5f 9fbd 8908 d23b 1bdd 3dba 4dbc c5bd
00000020: a48a abbd c081 89bd 3ce7 7bbd bafb e63d
00000030: d53c cf3d 8b0d da3d 8cfd 0bbd 1418 873d
00000040: 268c a73d 01fa 3d3d bd4d c4bd 7058 e93d
00000050: e848 2c3d b5eb b1bd c5e2 d43d 7063 a73c
00000060: b910 a0bd 8690 e73d b4b1 0c3e e5ba 0c3e
00000070: cb41 85bd f94b 803d 200f 013d 879d 693d
00000080: 1c16 4f3d ffd2 8ebc 732e db3d 1bd8 fd3c
00000090: c224 abbd 49f3 19bd 3bc0 6cbd 8216 1d3e
000000a0: c1ee cebd 29be 8cbd d44a b83d b898 873d
000000b0: b5a0 5f3d f7eb de3d b534 47be e4e2 bbbb
000000c0: d0b9 03bd 852a 1e3c dfdd c4b9 19d0 853d
000000d0: 3d0a 0b3e 25dc 9a3d 9347 563d f67f ae3c
000000e0: d43f a93d 92d7 9dbb e416 a43d 62e5 063d
000000f0: 0c13 c0bc 31fc e8bd d746 bbbd ec93 c93d
00000100: 9389 e5bd b754 50bd 2e4f f43d 0fe8 dd3d
00000110: 38a4 be3d cc45 013e 8864 f2bc a702 0c3d
00000120: 2065 cbbd dbc8 453e e434 0d3e 6dd2 ae3d
00000130: 9e74 9b3d 5f89 d93d cb6d abbd 3b22 233d
00000140: 01e8 bbbd 16c3 b13d 0d6e 963d 9d5a aa3d
00000150: b919 16be 5630 683d aa54 8cbd a36d adbd
00000160: 7319 c6bd 675e 0f3d 8552 bd3d d0dc 08bd
00000170: dbe2 cebc 024d acbd ef17 1e3d 1767 88bd
00000180: ee89 513c ae7d ba3d 42f5 143d 5057 f53d
00000190: 9ae2 e03c 94fe 983d c022 e6bd 54e5 5fbd
000001a0: 5f85 c93c d129 e73d e01f d4bb 4c0d b23d
000001b0: 5aa7 94bb 78c2 153e 3ac2 0f3e 7c1b a03d
000001c0: 23f4 d5bd dc7b 9a3d ff42 133d aa26 153d
000001d0: 027d dbbd 8a48 9c3d fe25 e43d da05 833d
000001e0: e20e 32bc bfac cdbc cc5d 2ebd 2041 023e
000001f0: cdf9 d2bb 32cb f1bd aea8 c8bd 7d65 91bc
00000200: 1c12 823b 8412 c1bd 58f3 3abe 77e9 883d
00000210: e8b2 b53d 9493 92bd c3a8 923b d5e4 d13d
00000220: d379 9dbd 9b58 29be 6173 c0bd f082 d2bc
00000230: 8e1b 01bd 647c d5bd 7490 bebd 9135 d73c
00000240: af29 043e 096a 46bd cbdd f13d d2ab 81bd
00000250: 9ebc 2b3e 4def cabc 8931 c9bd d92a e13c
00000260: 2cf7 0abe d162 e6bd a586 5f3d 6cb5 28bd
00000270: 5ae1 87bd c9fe a73d 8475 d4bd 8430 e1bd
00000280: 6c58 0fbe 7279 8a39 7110 903c 380a de3c
00000290: fcce ca3d b911 b93d bf0f df3c bea6 1fbd
000002a0: ef27 d6bd a38b f7bd f6b3 74bd dbee 59be
000002b0: b3d9 963d 77f4 37be b67a 71bd 1cd5 4cbc
000002c0: 6c70 5e3c 65c7 b93d 0bd9 eebc 59e8 cabd
000002d0: 194c 933d d585 c4bc eff2 553d 1275 a1bd
000002e0: 5312 963d 9010 27bd 300d 06bb 8b9d 06bd
000002f0: e706 bbbd 1a4d 073e e63e bc3d f516 dbbd
00000300: 6ea9 cabd 16ec a2bd 762b 6b3e 972e aebd
00000310: f94d d23d ba6c dd3d 1e37 48bd 222a b23d
00000320: 1246 973c 798a 6fbe e835 11be b89e c5bc
00000330: 11a6 ecbc 1cc2 40be 8781 cfbd c4b9 873d
00000340: 3751 1a3d 0611 60bd 4e2a b83d 2752 b63d
00000350: 68ae 713e 7fe0 903d 750e e3bd 0981 fa3d
00000360: 4a00 1bbd fcf2 e83b b4a7 873d e6fe b5bd
00000370: 9959 b9ba e780 aabd 5406 4b3c 991a 893d
00000380: 678e 523e cdac b2bd ab7b 70bd 003c 49bd
00000390: e15c e93c 2d95 043d c024 ae3c 1bfa 79bd
000003a0: 346f 663d c2f4 e63a 1128 c4bd 2033 1a3d
000003b0: 6e46 6b3e 5803 413d 4e8f 82be 30e2 a3bd
000003c0: ed51 7dbd d307 98bd c871 583c 0962 e43d
000003d0: d766 c8bd 5bcd 7fbd 9127 c8bd 8b3a 553d
000003e0: 16f6 223e 2c1d 9e3d 0994 d03d ce32 17bd
000003f0: f248 9fbd 363b 1cbe 39ec 213d 9270 e8bd
0.049269278 0.0698489 0.075660355 0.058401644 -0.077818014 0.006409709 -0.0007242725 -0.09655056
-0.08376053 -0.06714201 -0.06149982 0.11278482 0.10119025 0.10647114 -0.034177348 0.065963894
0.08181028 0.046381 -0.0958514 0.11393821 0.042061716 -0.08687536 0.10394815 0.020433158
-0.078156896 0.113068625 0.13739663 0.1374317 -0.0650669 0.06264491 0.031508565 0.057034995
0.050558195 -0.017434595 0.10702219 0.030986836 -0.0835662 -0.03758553 -0.057800513 0.15340617
-0.101041324 -0.06872208 0.08998647 0.06620926 0.05459662 0.108848505 -0.194537 -0.0057338346
-0.032159626 0.009653692 -0.0003754934 0.06533832 0.13578124 0.075615205 0.052314352 0.02130125
0.082641274 -0.0048169577 0.080121785 0.0329336 -0.023446582 -0.11376227 -0.09144371 0.09842667
-0.11207881 -0.05086204 0.11929165 0.10835277 0.09308666 0.12624282 -0.029588953 0.034182217
-0.099313974 0.19314902 0.13789707 0.08536229 0.07590602 0.106219046 -0.08370551 0.039827567
-0.091751106 0.08679788 0.07345209 0.08318064 -0.1465825 0.05668672 -0.06852086 -0.08468177
-0.09672823 0.03500214 0.09244255 -0.03341371 -0.025254657 -0.084131256 0.038597044 -0.06660288
0.012789233 0.09106003 0.03636671 0.11979544 0.027451802 0.07470432 -0.11237097 -0.054662064
0.02459973 0.11287273 -0.0064735264 0.086939424 -0.0045365514 0.14624965 0.14038935 0.07817742
-0.10446956 0.075431556 0.035952564 0.036413826 -0.10717203 0.07631023 0.11140059 0.063976005
-0.010867806 -0.025106786 -0.04256992 0.12720156 -0.00643847 -0.118063346 -0.09797798 -0.017748589
0.003969444 -0.0942736 -0.18256891 0.06685155 0.08872014 -0.071570545 0.0044756844 0.10248724
-0.07689252 -0.16537707 -0.09397007 -0.025697201 -0.03152042 -0.10424116 -0.09304896 0.02627066
0.12906526 -0.048440967 0.11809882 -0.063316 0.1677117 -0.02477231 -0.09823901 0.027486252
-0.13570851 -0.112493165 0.054571766 -0.041188642 -0.06634779 0.08202893 -0.10373977 -0.10995582
-0.13998574 0.00026411895 0.017585965 0.027104482 0.099027604 0.090365835 0.027229188 -0.038977377
-0.104568355 -0.120871805 -0.059741937 -0.21282522 0.073657416 -0.1796435 -0.058954917 -0.012501981
0.013576608 0.090712346 -0.029156229 -0.09907598 0.07192249 -0.023989597 0.052233633 -0.078836575
0.07327714 -0.04078728 -0.0020454638 -0.03286509 -0.09132176 0.13213006 0.091916844 -0.10697738
-0.098955974 -0.07955186 0.22965798 -0.0850498 0.10268778 0.108117536 -0.04888069 0.086994424
0.01846603 -0.23392667 -0.1418072 -0.024123535 -0.02888778 -0.18824047 -0.10132127 0.06627229
0.03767511 -0.054703735 0.08992444 0.08902388 0.23601687 0.07074069 -0.11086742 0.12231643
-0.037842073 0.007109044 0.06623784 -0.08886509 -0.0014141082 -0.083253674 0.012391645 0.06694526
0.20562135 -0.087243654 -0.05871169 -0.049129486 0.02848667 0.032368828 0.021257758 -0.061029535
0.056258395 0.0017620551 -0.095779546 0.037646413 0.22976086 0.04712233 -0.25499958 -0.08002126
-0.06184571 -0.07423367 0.013210721 0.11151511 -0.0978524 -0.0624517 -0.09773172 0.052057784
0.15914187 0.07720408 0.101844855 -0.036913686 -0.07777585 -0.15256962 0.03953192 -0.11349596

encoder.5.bias f4 [16]
00000000: bdc6 11be 0a8c e63c ecbd 8e3b e58b c3bd
00000010: 1723 9b3d adb5 ef3c 54b1 cdb9 1d71 cfbd
00000020: ce1e 31bd 220b eb3d a164 86bc 9fc1 cb3d
00000030: bb02 323d 125c bcbc 83ce 4abd b4fd 323b
-0.14235969 0.028142948 0.0043561365 -0.09548167 0.07575052 0.029261434 -0.00039232767 -0.101289965
-0.04324227 0.11476733 -0.016405405 0.0994904 0.043459635 -0.022993121 -0.04951335 0.0027311863

decoder.0.weight f4 [64, 16]
00000000: f51b 0abe 59fc 603e b55e 0abe b73c 09be
00000010: fb87 eebd 7d66 8dbe f8c2 6cbd 682b 3dbe
00000020: ec6f a83d 226e 963d 49d2 e4bd 7be6 82be
00000030: c4f0 04bd 9379 d0bd 46ff 02be 12d0 aabc
00000040: 1eb0 873d b77d 773c 63a4 283d b1fe 96bd
00000050: 8a54 0b3c 3936 a93d aaa1 a0bd c12a 1e3d
00000060: c719 033e a5f4 093e ceca 1abe 125c e2bd
00000070: 8fdf 48be 39d2 263e 2d97 f1bd c231 2fbe
00000080: bacf e2bd 5949 093e f6d2 2d3e 8362 e9bd
00000090: ec0a 34bd 534b a43d e76f 45be 31bb f9bd
000000a0: 8b52 36be e5f6 fbbd 2f4e 123d d6ca 02be
000000b0: 3ba4 a93d e7ea 5a3e a7ff 1c3e d9d4 47be
000000c0: 9306 913e 7fa1 c93d c585 45be b5a9 a33d
000000d0: 43d0 d8bd 84cf 2dbe 68e7 41be 8460 5f3e
000000e0: 2115 0dbe 2094 ca3d 4700 4d3e d0b0 033e
000000f0: 1429 e0bd 2773 46be 6137 cfbd 0f56 5ebe
00000100: c444 d43c 8c0d 7d3b bb5c 9c3c c823 53be
00000110: 890c 26be f216 183e 72be d63c e3a8 2f3d
00000120: 52f4 513e a08c 243d 3276 823d a39d c4bc
00000130: 8697 a2bd 0d91 5ebe b050 193e 0e9e 61be
00000140: fe37 44be bcfc 65be 7887 28bd bc1a 2d3e
00000150: 1a94 72be 0842 653d d098 b1bc 7008 f5bd
00000160: 967c 14be 702b 82bd 9c45 3d3e d20a 74be
00000170: acae 033e d8b5 813d 981d 29be 268f 5cbe
00000180: fab4 76be cccf 503d a499 4cbe bf21 53bd
00000190: 1202 afbd 98fa 5d3e 14c0 3ebe 1ba8 773e
000001a0: d529 043e b6b8 b1bd b2cd d8bd 79e3 25bd
000001b0: fe1f 66be 8d01 3fbe 784a 723c 4714 5ebe
000001c0: 93b9 2e3d 1397 1d3e abd9 213e 10df 7a3d
000001d0: 1997 0fbe f84c 62be a883 243e 3ec0 8abe
000001e0: 6cba 463e b76e 8abd f739 f73d 564a c0bd
000001f0: 3bb4 cebc fdd2 233d ec00 09be 5d0c 67bd
00000200: dbfa f7bd de80 05bd 3e3b 44be f049 6ebe
00000210: 094c 643d 6805 b03d b1af 74be fe7a 56be
00000220: 8ffc 043d fa0a 013e 050e 9bbe f592 5d3e
00000230: 6751 483e 8afc 633e 22d1 973e 0793 a2bd
00000240: e203 bb3c bd89 5fbe c135 b83e e2c5 163e
00000250: 3d39 01be d121 2c3e fbc4 33bd ad4c 13bc
00000260: 75fc 9e3d 3365 77be d1f1 3abe b63a ca3d
00000270: bca4 923d bc6b 7f3c 7e5b 963c 0823 bc3d
00000280: df8e c73d 76a0 c73d c56c eebd 798e 60be
00000290: 876e c33c 954b 713e 6da7 40be 91c4 25be
000002a0: a482 2abe 3741 a5bd 3aad 5a3e 2923 4f3e
000002b0: 92bf 193e 7ecf 57be a8b3 483e 3d5f 6d3e
000002c0: 6da3 693e 08c6 c73d feb3 dd3d d37d 283e
000002d0: 840d 2a3d 868c 2cbe 65fb 963d 0223 7f3d
000002e0: d03c c5bd 72a3 153e 8fb0 4bbe 233e fb3d
000002f0: e2b4 7d3c 0ab4 7ebe 18cc 9d3e f9e9 443e
00000300: cb7b a33d 3fe3 573e 3f26 453d e5fe 7cbe
00000310: c10b 6fbe f227 bc3c e781 4d3a 0c34 2dbe
00000320: 1533 173e 2c87 503e 573c 3fbe fac6 3dbe
00000330: 65b6 6d3e 3505 6d3d c481 20be 4fdd 663d
00000340: 5940 debd 4340 7e3d d662 87bc f41c 563e
00000350: ec4e 0dbe 6966 6a3e 8146 bcbd fa7c 313e
00000360: c711 81be 829b e23d bb14 133e 756b 433e
00000370: e8f8 113e c553 73bd cf8e 17bc 7a24 313e
00000380: c7ea 023e 1ed3 a63d 5cd3 4cbe dfd7 2f3e
00000390: 0306 1f3e dbb0 953d 9776 15be 9168 e33d
000003a0: 894b b93e e8fd 803c 131b 333e c88b 22be
000003b0: f59e 16bd 5b83 d23d b9a8 0ebe 01af 943e
000003c0: 8e38 44be 512c 23be 0cc4 dcbd 0e45 59be
000003d0: a063 7b3c f405 4abe 8665 353e 89f9 063d
000003e0: 036f c3bb 6d61 08bd 3f70 5a3e 6ec6 d13b
000003f0: ff22 9dbb 5eb5 2d3d 7d2c 51be 7d3e 273e
-0.13487227 0.21971263 -0.1351269 -0.13402067 -0.1164703 -0.27617255 -0.057803124 -0.1847359
0.082244724 0.07345225 -0.11172921 -0.25566468 -0.032456174 -0.101794384 -0.12792692 -0.020851169
0.066253886 0.015105656 0.041172396 -0.07372797 0.008504042 0.08262295 -0.07843335 0.038614992
0.12802802 0.1347223 -0.15116426 -0.11052717 -0.19616531 0.16291131 -0.117964126 -0.17108825
-0.11074777 0.13406886 0.16975006 -0.11395743 -0.04395573 0.080221795 -0.19280969 -0.12193907
-0.17804925 -0.12302951 0.035719093 -0.12772688 0.082832776 0.2137867 0.15331899 -0.19514789
0.28325328 0.09845256 -0.1928931 0.079913534 -0.10586598 -0.16973692 -0.1893593 0.21814162
-0.13777591 0.09891534 0.20019637 0.12860417 -0.10945335 -0.19379865 -0.101179846 -0.21712516
0.025911696 0.003861281 0.019087186 -0.20619118 -0.1621572 0.14852503 0.026213858 0.042885672
0.20503357 0.040173173 0.063702 -0.024000948 -0.07939057 -0.2173502 0.14972186 -0.2203295
-0.19161984 -0.22459692 -0.041144818 0.1690473 -0.23689309 0.055971175 -0.021679312 -0.119645
-0.14500651 -0.06355941 0.18483585 -0.23832253 0.12859601 0.06333512 -0.16515195 -0.21538982
-0.24092475 0.05097942 -0.19980484 -0.051545855 -0.08545317 0.21677625 -0.1862796 0.24185221
0.12906583 -0.08677809 -0.10586108 -0.040500138 -0.22473142 -0.18652935 0.014788263 -0.21687423
0.042657446 0.15389661 0.1580569 0.061247885 -0.14022483 -0.22099674 0.16065848 -0.27099794
0.19407052 -0.067593984 0.12071603 -0.093891785 -0.025232425 0.039996136 -0.13379258 -0.056408275
-0.12108394 -0.0325936 -0.19163224 -0.23270392 0.055736575 0.08594781 -0.23895146 -0.20945355
0.03246742 0.12601843 -0.30284134 0.21638091 0.19562303 0.22264305 0.29651743 -0.079381995
0.022829 -0.21829887 0.3597851 0.14723924 -0.12619491 0.16809775 -0.043889027 -0.008990449
0.07762996 -0.24159698 -0.18256308 0.098744795 0.07160327 0.015589651 0.018354174 0.09186369
0.097440474 0.09747402 -0.1164184 -0.21929349 0.023856414 0.23563989 -0.18813868 -0.16188265
-0.16651398 -0.08069079 0.21355143 0.20228256 0.15014485 -0.21075246 0.19599783 0.23180862
0.22816248 0.09754568 0.108253464 0.16454248 0.041516796 -0.1685048 0.073721685 0.062289245
-0.0963074 0.1461313 -0.1989157 0.12267711 0.01548502 -0.24873367 0.30819774 0.19229878
0.07982596 0.21082781 0.048132177 -0.2470661 -0.23344328 0.022968266 0.00078394864 -0.16914386
0.1476558 0.20364064 -0.18675362 -0.18532935 0.23214109 0.057866294 -0.15674502 0.0563634
-0.10852117 0.062073004 -0.01652662 0.20909482 -0.13799638 0.22890629 -0.09193135 0.17332831
-0.25208876 0.11064817 0.14363377 0.1908396 0.14255106 -0.05940606 -0.009250357 0.17299071
0.12784873 0.08145736 -0.20002502 0.17172192 0.15529637 0.07309123 -0.1459602 0.11103929
0.3619044 0.015746072 0.17490797 -0.15873635 -0.036772687 0.1027896 -0.1393155 0.29039767
-0.19162199 -0.15934874 -0.107795805 -0.21217749 0.015343577 -0.19728833 0.1771451 0.03295282
-0.0059641614 -0.033296037 0.21331881 0.0064018285 -0.0047954316 0.042409293 -0.20427127 0.16332431

decoder.0.bias f4 [64]
00000000: dcda 24be 54e9 443c a9ac ecbd fb75 153e
00000010: 9eab 1abc 3269 29be f34c 273e 4053 423e
00000020: dedb 2abe 694f 433e 1fa4 323d 8e96 f43c
00000030: ff60 aa3d c7b4 ddbd 55e4 093e d444 44bd
00000040: d3c8 493e ecb8 4bbe ecde d5bd b7d9 0bbe
00000050: 9d6d 583e 830c 29bd 1504 bc3d 9479 f4bc
00000060: 48f4 4a3e 3540 853d bf2c c53d dd0b 303d
00000070: aa13 ecbd 415d 55bd 80c1 383e 739f 043d
00000080: cc90 463e 6690 d3bd ac12 1dbe f7bc 15bd
00000090: b71f 31be 039d afbb edeb 69be 38c1 86bd
000000a0: 9337 50be d6c3 bc3d 4adc e33c 51eb 303d
000000b0: f9c7 633d f20a c13d 0e06 423e 88cf 45bd
000000c0: b51e 0abc f0de a4bd 58ba 26be 1d48 60be
000000d0: be0d 32be 7c19 82bd 274e 793d 3e6c 2fbe
000000e0: 08c6 243d 2308 1dbe 0a0e b63d 57a0 4ebd
000000f0: 5e23 35be 8921 dfbc 8919 f5bb 20e7 2cbe
-0.16099113 0.01201852 -0.1155637 0.14595787 -0.009440331 -0.16544035 0.16337948 0.1897707
-0.16685435 0.19073261 0.04361355 0.029856946 0.08319282 -0.10825496 0.13466008 -0.047917202
0.19705515 -0.19894761 -0.104429096 -0.1365727 0.21135564 -0.041271698 0.09180466 -0.02984313
0.19819748 0.06506387 0.09627675 0.042980064 -0.11527188 -0.052090887 0.18042564 0.032378625
0.19391173 -0.10330276 -0.15339154 -0.036557164 -0.17297255 -0.0053592934 -0.22843905 -0.06579822
-0.203337 0.0921704 0.027815003 0.043193165 0.05561063 0.09425916 0.18947622 -0.04829362
-0.008430173 -0.080503345 -0.16282022 -0.21902509 -0.17388055 -0.06352517 0.060865548 -0.17131135
0.04022792 -0.15335135 0.088893965 -0.05044588 -0.17689273 -0.02723767 -0.0074798507 -0.16885042

decoder.3.weight f4 [128, 64]
00000000: be3a e0bd 5c1c 15bd 56b1 873d 01f4 96bd
00000010: eee5 e13c 5203 eb3d 9578 f23d d8e1 1cbd
00000020: 76bd bc3c 169b 94bd d5b8 3b3d 7da0 563d
00000030: 8968 993d 99aa 8f3c f7c0 3abc 513a a9bd
00000040: 07e2 363d b949 84bd 1cfe 183d 1061 8bbd
00000050: d612 10be 96df b53d d8ad 8d3d 24f6 003e
00000060: 1411 abbc 63a0 8c3d 7fcc 09bb a399 383d
00000070: e661 a4bc 7096 343d d090 17be 4eab bbbc
00000080: bfa9 ae3d 9529 77bd 8c17 c43d 7fff cd3d
00000090: ced5 7abc 0eb8 583d ce4b 97bc 3ec1 883d
000000a0: 788e 1f3d abda 11bc 4f44 9a3b 50aa 663d
000000b0: 0c6d b43d a2e2 25bd e8bf b4bd 6cda 5bbd
000000c0: b9cc fbba 2223 e23d 7673 35bd 2148 b8bd
000000d0: d88c 5b3d 503d 2cbc 7ffd f23d 8027 373b
000000e0: 4148 bf3d e12c 183c 0bdb 6abc 9753 4e3b
000000f0: f4b3 22bd a246 74bd a936 923d 94e9 953d
00000100: c09e bcbb a4a5 333a e43d 253d debd 393d
00000110: 3a49 04be b409 3dbd 5e76 fdbd 2e0e 10be
00000120: a3e4 15bd 6b67 e13c 9bf9 95bd 17d0 32bd
00000130: 0c50 823d 1e6a e53d 8603 933d b3c2 b0bd
00000140: a644 183d 0706 a5bd d8d7 363d 0279 d73d
00000150: fb0a 02be 6057 84bd b5a8 4ebd b2e7 273d
00000160: d22f 383d 9d80 a2bd ef4c 99bd 1b98 aa3d
00000170: 87a3 0ebe 4592 99bc ecd7 88bd 2fd6 bc3d
00000180: 3325 03be 9a0c b1bd cec4 cdbd 0b4f 00be
00000190: fadc 193d 0e15 853c 5f1e 34bc d327 d7ba
000001a0: d68a c9bd fc78 503d 26c9 27bd ce44 6dbd
000001b0: cbc2 9abd 1897 9fbd 21b1 833d 100c fc3c
000001c0: f009 01be 2ecc e23d ebd4 873d fbf7 653d
000001d0: b698 a93d 0812 fc3c 8c66 01bd 02db c1bd
000001e0: a584 12bd 6ded 133d 42fa 0bbd 425b e7bd
000001f0: e2f8 953d 03e8 30be d227 67bd fcf1 73bd
00000200: fad6 a6bd 14aa ab3c b6b3 89bd adef 4b3d
00000210: 52e7 673d c44c a3bd 1c40 f7bc 742f 38bd
00000220: 9fd3 a1bd db87 993d 85df 0bbb 82e6 8d3c
00000230: dced 453c f680 03be c126 c4bd 1c14 a63d
00000240: e429 10bd b04c 13bd 23b8 a13d 2825 633d
00000250: 827a 723b 377c 67bd 3e3d b0bd 30ad cc3c
00000260: f015 873d a15b bdbd 74a8 cdbc 025e 753d
00000270: d87e f4bd 0c03 f6bd ffd7 1ebd 36f9 e43c
00000280: dae2 8dbd 6096 f63d fce7 0bbd c667 b23d
00000290: c914 613d deca b13d 8b8a e13c 7d48 e7bd
000002a0: fb6e 40bd c330 083b 8077 fabb 3462 7dbd
000002b0: 229b 4b3d 4786 b23c 79bf 143d ac91 c93d
000002c0: 89fd 2e3d 67d0 023d 6539 d23d e71f 8cbd
000002d0: e008 e73b eee4 cdbd a950 fb3c 1ca5 79bd
000002e0: 0d57 81bd 8aa9 de3d 6875 48bb 5cba e03d
000002f0: a0f9 9cbc eb61 29bc 32f2 653c 80eb 643c
00000300: 1e3b 8dbd 7172 c7bd c061 283c e7ab afbe
00000310: 3edd 04bd 4e66 873d d581 883d b98d a0bd
00000320: c687 ea3d 8112 76bd 602b 103d 5627 edbb
00000330: 3d5d 443d ed34 6a3c edec 10bd 25de e4bd
00000340: 92f4 233b 94a9 12bd 1eea 88bd a9d1 d7bd
00000350: f1d5 bfbd 86ab c73c 04b2 b83b 9ea9 24bd
00000360: 6a9b 88bd 486a 8fbd 2daf 613d 9017 233d
00000370: 4781 69bd bc4d 013e a6a3 f3bc 72a4 c33b
00000380: 90e8 aabc b50a 7a3d 2479 edbd f936 e63d
00000390: 44e6 7d3c ecfd 41bd 0482 81bd 23dc 363e
000003a0: 40d0 edbd dfbc 16be 9732 983d 7d6a 3fbd
000003b0: 7a68 7bbd 3146 813d 9eec 1dbd 1a1c f73d
000003c0: 6852 363d e157 503c 0bd6 273e 7bbd 37bd
000003d0: c2a8 f7bd 288e f2bc b90b 3c3d 901c 8bbd
000003e0: 3a49 073d 5b2d e23d 0c41 043c 6323 a9bd
000003f0: e4a5 f5bd baf5 023e b1d9 93bd e036 dbbb
-0.10948704 -0.036404 0.06625621 -0.07370759 0.02757546 0.11475243 0.118394054 -0.03830132
0.02303956 -0.07256143 0.045830566 0.052399147 0.074906416 0.017537402 -0.0113985455 -0.08263076
0.04464915 -0.06459374 0.037351713 -0.068056226 -0.14069685 0.08880536 0.06917924 0.12593895
-0.020882167 0.06866529 -0.002102643 0.045068394 -0.020066213 0.04408878 -0.14801335 -0.022908833
0.0852847 -0.06034239 0.09574804 0.10058498 -0.015309764 0.052909903 -0.018468764 0.06677483
0.03895423 -0.008902232 0.00470785 0.056314766 0.088098615 -0.040499337 -0.08825666 -0.0536751
-0.0019210792 0.11041857 -0.044299565 -0.089981325 0.053601116 -0.010512665 0.11864757 0.0027947128
0.09339953 0.009288044 -0.0143344505 0.003148293 -0.039722398 -0.059637673 0.07139332 0.07319942
-0.005756229 0.00068529905 0.040342227 0.045347087 -0.12918559 -0.04615183 -0.123760924 -0.14067909
-0.036594998 0.027515134 -0.07322999 -0.04365548 0.06362924 0.11201881 0.071784064 -0.08630886
0.037174843 -0.0805779 0.04463944 0.10521127 -0.12699501 -0.06461978 -0.05045386 0.040992446
0.04496748 -0.07934687 -0.07485377 0.08329793 -0.13929568 -0.018746505 -0.06681809 0.0922054
-0.12807159 -0.08644982 -0.10047303 -0.12530152 0.037564255 0.016245391 -0.010993569 -0.0016415067
-0.09840934 0.05089663 -0.040963314 -0.057926945 -0.07556685 -0.07792491 0.06430269 0.03076747
-0.12601447 0.110741004 0.06632408 0.056144696 0.082810804 0.030770317 -0.031591937 -0.094656006
-0.03577103 0.0361151 -0.03417421 -0.11296703 0.07322861 -0.17276005 -0.05643446 -0.059556946
-0.08146472 0.020955123 -0.0672373 0.04978912 0.05661709 -0.07973626 -0.030181937 -0.04496713
-0.07901692 0.074966155 -0.0021342945 0.017321829 0.012080636 -0.12842163 -0.09577704 0.08109304
-0.0351962 -0.035961807 0.078964494 0.055455357 0.003699929 -0.056514945 -0.08605431 0.024984926
0.06595981 -0.092459925 -0.025104739 0.059904106 -0.11938256 -0.120123 -0.03878021 0.027950864
-0.06928034 0.120404005 -0.034156784 0.087111995 0.054951463 0.08681272 0.027531883 -0.11293123
-0.04698084 0.0020781017 -0.00764364 -0.061861232 0.049708493 0.021792544 0.036315415 0.09842238
0.04272226 0.03193703 0.102648534 -0.068420224 0.0070506185 -0.100534305 0.03067811 -0.060948476
-0.06315432 0.10872181 -0.0030587558 0.10973045 -0.019162 -0.010338287 0.014034795 0.013972163
-0.06896041 -0.09738625 0.010277212 -0.3431084 -0.032437555 0.0661131 0.066653885 -0.078395315
0.11451678 -0.06007624 0.035197616 -0.007237355 0.04794048 0.014294845 -0.0353822 -0.11175183
0.0025017601 -0.035806254 -0.06685279 -0.105380364 -0.09366978 0.024373781 0.0056364555 -0.040200822
-0.06670268 -0.070026934 0.0550987 0.039817393 -0.057008054 0.1262731 -0.02974112 0.005970531
-0.020862848 0.061045367 -0.11595371 0.11240954 0.015496794 -0.0473613 -0.06323627 0.17857413
-0.11611986 -0.14720486 0.07431524 -0.046732415 -0.061378933 0.06312216 -0.038555734 0.12065907
0.044512182 0.012716264 0.16390245 -0.044858437 -0.12092735 -0.029608801 0.045909617 -0.06792557
0.03302882 0.11043807 0.008072149 -0.082587026 -0.11994532 0.1278905 -0.07219256 -0.006689891

decoder.3.bias f4 [128]
00000000: 0132 d13d b79a 283d c581 e9bd 0648 a43d
00000010: 926a 113e 82b4 c1bd b590 803d 49a6 833d
00000020: 7ff2 84bd f7c0 0d3e 9efe 3c3e d52f ab3d
00000030: e34c 443d 19f2 6e3d c022 8d3d 3e79 1c3e
00000040: 0e78 bb3d 4478 a33d 47ff 303e ee3e 043e
00000050: f054 0a3e 2878 ac3d 7be4 c73d 02d5 2c3e
00000060: 7533 263e 6d6c 54bd c703 553e e8e7 e3bc
00000070: 070c 97bd 5d33 843d cbc5 213e ef2d 913c
00000080: 9ab3 853d 8748 b63d 7da9 af3a 6b67 a5bd
00000090: 9479 6ebd 11d0 053e f3fa c1bd 2d00 0cbe
000000a0: 714e 413e 1675 7b3e aa29 443e cffe 3b3e
000000b0: f328 80bc bbaf 373e 4079 183d b8b8 de3b
000000c0: 5bfc 1e3e 683a d83d e6bb 1c3c 9d88 9b3d
000000d0: 870d 113d 0f82 0e3e 1899 08be 281d 403e
000000e0: 4c53 eabd d679 383c 5f70 703e 1f19 98bd
000000f0: d8d7 123e 8e43 eb3c 20ed 2d3e 4158 9d3b
00000100: 41bb f9bd a45c b2bd 2fff 69bd 45a6 843d
00000110: 3945 a1bb bf68 ad3c 9b39 d03c 56ea 0a3d
00000120: 287c 433e b296 343d f7ed 493d f4ce 483d
00000130: dbcc 8a3d e3af 7c3d 0100 d0bd 2a71 f8bd
00000140: 160e dabd b9b1 f63d 5db8 213e e417 4a3d
00000150: f3b4 e33c 849b 1cbd 588d ae3d 999c 673e
00000160: 7b49 0a3e 16c6 7e3c 0fd8 ec3b 7f13 693d
00000170: ba94 5e3d b7ba 913c d747 eb3d 09c5 4e3e
00000180: 57f6 e3bd 044a 1f3e f5fa 2c3d 97b7 b6bd
00000190: 8103 083e 71eb d2bc b888 e3bd dc6d ec3c
000001a0: bc84 1a3d 9e8f 393e 4715 c33d 4418 963c
000001b0: 9a3d 29bd ea7c 8b3d dd3f 073e 997e 8b3a
000001c0: 55cd e03d c689 51bd a0bc 943d 7686 eabd
000001d0: 392a 29bd 3e9f 2cbd f04a aa3d 02fc ce3c
000001e0: 4581 033e bb8e 64bd 26bb 0d3e 078d 1f3e
000001f0: 1fa4 e33d 14fd bc3d 0768 ffbd 9b0e 403e
0.102146156 0.041163173 -0.11401705 0.0802155 0.1420081 -0.09458257 0.06277601 0.06428201
-0.06491565 0.13843141 0.18456504 0.083587326 0.047924887 0.05833635 0.06891394 0.15280625
0.09153758 0.07981923 0.1728488 0.12914631 0.13508964 0.084213555 0.09760376 0.16878131
0.16230567 -0.051861215 0.20802222 -0.027820542 -0.07375341 0.06455109 0.15798108 0.017722098
0.06528397 0.08900552 0.0013401952 -0.08076366 -0.058221415 0.13067652 -0.09471693 -0.13671942
0.1887758 0.24556383 0.19156519 0.1835892 -0.015644526 0.1793813 0.037225008 0.0067969225
0.15525953 0.10558015 0.009566283 0.07594416 0.03541329 0.13916801 -0.1333965 0.18761122
-0.11441669 0.011259517 0.23480366 -0.074266665 0.1434015 0.028718736 0.16984987 0.0048017805
-0.12193919 -0.08709076 -0.057128128 0.06477026 -0.004921582 0.02116811 0.025418093 0.033914886
0.1909033 0.044089027 0.049299207 0.04902549 0.06777354 0.061691176 -0.10156251 -0.12130959
-0.10647218 0.12045617 0.15792985 0.04933919 0.027796244 -0.03823425 0.08523053 0.22618331
0.13504593 0.015550157 0.0072279046 0.05690336 0.054341055 0.017789228 0.11488312 0.2019235
-0.1113097 0.15555578 0.04223152 -0.08921736 0.13282587 -0.025747033 -0.111100614 0.028860979
0.03772424 0.18121192 0.09525543 0.018322118 -0.041318513 0.06810935 0.13207956 0.0010642587
0.10976664 -0.05115678 0.0726254 -0.11451428 -0.041300032 -0.042144053 0.083150744 0.025266651
0.12842281 -0.05580018 0.13840923 0.15581141 0.11115288 0.09227958 -0.124710135 0.18755572

decoder.5.weight f4 [64, 128]
00000000: cc4b 603d f81b d3ba 8db1 33bd 3e09 b43d
00000010: af09 4a3c 629c 99bd d5be db3c 1d69 f63d
00000020: 4074 cebb 563f 873e c80e 833d 8484 c63c
00000030: e9d5 c63d 4be1 ce3d a526 e23c 459b c43d
00000040: 78a5 55bc d73b e53c 214c fcbc 21d8 a63c
00000050: a987 063e 7efc b93d c420 b93d 442a b93d
00000060: ae1a 663d 3c74 4d3d 33d4 0a3e 7f51 9ebb
00000070: 66b7 61bd 8463 383c 976f d83d 55df 2fbd
00000080: 7a29 003e 9d04 c43d c4b9 a13d cc89 9c3d
00000090: b4e9 b5bc 881b dd3d e322 babc 2227 193b
000000a0: 1c44 c03d 7cb2 6c3e 9018 a63d 62a1 d93d
000000b0: de51 843d df2a bf3d a941 a23b e909 d13d
000000c0: 1c2f c93d ee07 693d 6a48 533d 9b49 2ebd
000000d0: 2857 2cbd a3c8 693c 51b1 74bd 96a1 b23d
000000e0: 6828 533d dfda 40bd 7b74 183e 4c35 0e3d
000000f0: d008 29bd 3d8b b73c 4c6d b83c c43e ddbc
00000100: 16c8 42bd a2bd c83d ecd3 5ebd 51dc 6ebc
00000110: c81e b63d d0d9 7a3c a352 0c3e 23ca b23b
00000120: af49 443e b64a cdbc d532 c6bb 72d4 78bc
00000130: 2be3 d23d 77e4 c03d 16be 4dbd 3c79 7cbc
00000140: 5c1d 93ba 6a3c e63d dc81 773e 55c9 1d3e
00000150: e4ff 8e3d 2599 013e bc1a b53e c301 7b3e
00000160: e261 9f3d d5ac 273e 100a e3bc 7c1b 0e3d
00000170: a9d9 6a3d 0f43 d33d c0dd e03d 97ef 713e
00000180: a8c6 8d3d a2d1 e03d 5ad1 6f3e 5adf b83c
00000190: 6840 ba3c 32ef 103d 15c6 b43d 5252 153d
000001a0: 3bc1 663d b459 0c3e 4604 0c3e 537d 62bd
000001b0: 9ae5 b13c 2544 373c c169 793d 8822 d0bc
000001c0: 44de 183e 6eea 593d 8041 973d 9766 2ebd
000001d0: 2fe0 44bd 12ef e13c 0106 42bc aad9 babc
000001e0: b02f bd3d 5054 a8bd e2c1 a93d 0ae5 c5bc
000001f0: 870b 3e3c ed49 f13a 0910 7d3c 1098 033e
00000200: e539 063d a880 c03d 7d69 96bc d30f f43d
00000210: b817 403d f05d b5bc 8283 df3b 0fbc 1b3c
00000220: d797 393d 98d8 6b3e b464 e43d 672d a13d
00000230: 5cbb 0f3d e300 6e3d b677 6dbc bddd 943d
00000240: 42a7 f83c 82d2 0abd 40a1 db3d ce4c 663d
00000250: 2efa b83d c214 a9bc da5c 1c3e f619 b13d
00000260: bcae 4abc 88c8 3fbd 75ef c93d 08c1 b63d
00000270: 4b73 713d 3122 403d 21f7 073e afbf aa3d
00000280: fb96 ee3d 5ab9 30bd 11e4 163d d503 8bbd
00000290: 148b 94bc c30f e23d 2d09 88bb e618 45bd
000002a0: 76eb ce3d 922e 803e e402 253c b276 263d
000002b0: 75cb 3c3c e453 b33d b2ae 413d 89e6 623d
000002c0: f915 12bd 9f6a 3abd 578d 123d a058 f8bc
000002d0: 53fa 213d 01de 383d c09f 3c3c 5df7 0c3e
000002e0: 4eff bebc 936e b93d a799 783e 8ac2 6ebd
000002f0: c496 af3d 9e42 83bb e09e b4bc 6bd3 a0bc
00000300: 234e a03d 9708 9f3c 2ddf 45bd 2b42 2d3d
00000310: 000c b83d fd79 843d fca1 9a3b 35d6 d43d
00000320: 229e 643e 5294 173d 8925 893c eea8 b1bc
00000330: 0c27 193e 1bf0 c2bc 16da 73bd c504 23bc
00000340: 5470 853b bafb 573d 460b 083e d635 173e
00000350: fbc3 6cbd c7e6 a33c baaf c53e f1ad 1e3e
00000360: e498 063e 31d3 a43d 9c36 dbb9 cead c43d
00000370: 4359 143e 610e 9c3d 19ac e23d db9c b43d
00000380: d8b4 88bc 330c 9a3c 1ff7 4b3e 2634 7f3d
00000390: 5504 813d 1abc 41bd a771 88bd 26c3 2fbc
000003a0: 46af 6a3c ad3c 0c3e b0ad 9a3d c9c2 383c
000003b0: 0977 dd3d 78e3 92bb 2c80 9e3d 60da ce3d
000003c0: 5096 373d dcb6 5a3d b6a5 333d 0905 923d
000003d0: 8c9c 943d 280a a2bd 1dc1 fdbc 1894 45bc
000003e0: b5d9 c23d f533 beb8 69d5 c63d 47a1 ca3d
000003f0: 141d 5c3d 206d 983d 61ee babc c62e bfbc
0.054759786 -0.0016106358 -0.043870497 0.08790825 0.01233141 -0.07500531 0.026824394 0.120317675
-0.006300479 0.2641551 0.06399304 0.02423311 0.09708769 0.10101565 0.027606318 0.09599928
-0.013039939 0.027982635 -0.03079802 0.02036673 0.13137688 0.09081362 0.09039453 0.09041265
0.056177787 0.050159678 0.1355751 -0.0048314924 -0.055106543 0.011254195 0.10568159 -0.042937595
0.12515822 0.095711924 0.0789676 0.0764347 -0.022206165 0.10796267 -0.022721713 0.0023369272
0.09387991 0.23114961 0.08110154 0.106264845 0.064609274 0.09334349 0.004951675 0.10206968
0.098234385 0.056892328 0.05158273 -0.042550664 -0.042075306 0.014269027 -0.059739415 0.08722226
0.051552206 -0.04708373 0.14888184 0.034718797 -0.04126817 0.022405261 0.022513054 -0.027007468
-0.047554098 0.098017946 -0.054401323 -0.014578895 0.0889259 0.01531072 0.13703398 0.0054562255
0.19168733 -0.025060039 -0.00604854 -0.01518737 0.10297235 0.09418576 -0.05023011 -0.015409764
-0.001122396 0.11241992 0.24170631 0.15408833 0.06982401 0.12656076 0.3537196 0.24512391
0.077823415 0.16374524 -0.02771476 0.03469418 0.057336483 0.10315525 0.109797955 0.23626553
0.06922656 0.10977484 0.23419705 0.02256744 0.02273579 0.035384364 0.08826844 0.03645546
0.056336623 0.13706094 0.13673505 -0.0552953 0.021715928 0.0111856805 0.06089187 -0.02540709
0.14928538 0.053202085 0.0738554 -0.042578306 -0.04806536 0.027579818 -0.011842252 -0.022808868
0.09237611 -0.08219206 0.08288933 -0.024157066 0.011599428 0.0018408872 0.015445718 0.12850976
0.032770056 0.09399539 -0.018360848 0.11917081 0.04689762 -0.02213952 0.006821097 0.009505286
0.04531082 0.23031843 0.1115202 0.07869988 0.03509079 0.058106314 -0.014493873 0.07268856
0.030353192 -0.033892162 0.10724115 0.05622559 0.09032093 -0.02063978 0.15269795 0.0864753
-0.0123707615 -0.0468221 0.09860126 0.089235365 0.058947843 0.046907607 0.13277866 0.08337342
0.11649891 -0.043145515 0.036838595 -0.0678784 -0.018132724 0.110381626 -0.0041514845 -0.048119448
0.10103504 0.2503553 0.01007149 0.04064054 0.011523117 0.08756235 0.047285743 0.055395637
-0.035665486 -0.045511838 0.035779323 -0.030315697 0.03954537 0.045133594 0.011512697 0.13766237
-0.023315098 0.090542935 0.24277364 -0.058290996 0.08573678 -0.004005744 -0.022048414 -0.019632062
0.078274034 0.019413276 -0.04830854 0.04229943 0.08986664 0.0646858 0.004719017 0.10392419
0.22325948 0.037006684 0.016741531 -0.021686997 0.14956301 -0.023796132 -0.059534155 -0.009949868
0.0040722284 0.0527303 0.1328555 0.1476663 -0.05780409 0.020007504 0.3861063 0.15496041
0.1314426 0.08048094 -0.00041811622 0.09603463 0.14487176 0.0761993 0.11067981 0.0881898
-0.016687796 0.018804645 0.19918488 0.062305592 0.062996544 -0.04729853 -0.066623025 -0.010727679
0.014324015 0.13695021 0.075526595 0.011276909 0.1081372 -0.004482683 0.077392906 0.101002455
0.044821084 0.053397045 0.043859206 0.07129867 0.072564214 -0.079120934 -0.030975873 -0.012059234
0.095141806 -9.069584e-05 0.097086735 0.098940425 0.05373867 0.07442689 -0.022818746 -0.023337733

decoder.5.bias f4 [64]
00000000: d8ea e63c 1436 863d fad5 ca3d b2a0 4a3d
00000010: 7bad 373d 545e b73d 1922 c23d 5004 ca3d
00000020: 1c3e da3d 2027 36bb 9498 f3bc 5fb2 7a3d
00000030: d4cf 86bc caad 743d 0ffb ee3d cdbe 943d
00000040: 21b8 983d e979 7b3d 6c86 a73c ef54 ee3d
00000050: 62ac ee3d 7b61 13bc b98d f33d 8a71 4a3b
00000060: a6e0 e33d 1596 23bc 2834 573d 83a6 ff3b
00000070: 4939 253c 74f7 37bd 76c2 a2bc 8ef0 8c3d
00000080: 3ff7 e53c 5ea4 63bc ac59 2bbd 6ced 8d3d
00000090: 169f ad3d fed1 8dbc ed12 e2bb 52a4 093d
000000a0: 8b18 aabc 0261 a23d d492 283d 77b7 b43d
000000b0: 9137 863d 8dd4 f1ba 6e94 b13d 8814 be3c
000000c0: a898 853d 679c d53b dcc2 973d db39 7ebb
000000d0: 2167 c8bb ae46 2a3d ee25 483d 54a7 763d
000000e0: 2672 59bd c532 2d3d 0368 d43d 8570 d23d
000000f0: 4b2f e3bb 2da6 963d cd52 bdbc afba 35bd
0.028188154 0.06553283 0.09904094 0.049469657 0.04484318 0.089535385 0.0947916 0.09864104
0.10656378 -0.0027794316 -0.02973584 0.061205264 -0.016456522 0.05973605 0.116689794 0.07262955
0.07456995 0.06139556 0.02044984 0.116372935 0.11653973 -0.008995409 0.11892266 0.0030890428
0.11126833 -0.009984513 0.052539974 0.007801832 0.010084459 -0.044913724 -0.019868117 0.0688182
0.028071998 -0.013894169 -0.041833565 0.0693005 0.08477609 -0.017312046 -0.006899229 0.033603974
-0.020763656 0.07928659 0.04115565 0.08824056 0.06553567 -0.0018450186 0.08670889 0.02320315
0.065232575 0.0065188888 0.07410213 -0.0038791809 -0.0061158095 0.04157131 0.048864298 0.06021817
-0.053087376 0.042284746 0.10371401 0.10275368 -0.006933128 0.07355914 -0.023110772 -0.04436749
